Args:
	mode: training
	batch_size: 64
	lr: 0.00015
	pt_lr: 1e-05
	weight_decay: 0.0005
	device: cuda
	num_epochs: 120


Model: AlexNet
==========================================================================================
Layer (type:depth-idx)                   Output Shape              Param #
==========================================================================================
AlexNet                                  [1, 100]                  --
├─Sequential: 1-1                        [1, 256, 2, 2]            --
│    └─Conv2d: 2-1                       [1, 64, 16, 16]           1,792
│    └─MaxPool2d: 2-2                    [1, 64, 8, 8]             --
│    └─ReLU: 2-3                         [1, 64, 8, 8]             --
│    └─Conv2d: 2-4                       [1, 192, 8, 8]            110,784
│    └─MaxPool2d: 2-5                    [1, 192, 4, 4]            --
│    └─ReLU: 2-6                         [1, 192, 4, 4]            --
│    └─Conv2d: 2-7                       [1, 384, 4, 4]            663,936
│    └─ReLU: 2-8                         [1, 384, 4, 4]            --
│    └─Conv2d: 2-9                       [1, 256, 4, 4]            884,992
│    └─ReLU: 2-10                        [1, 256, 4, 4]            --
│    └─Conv2d: 2-11                      [1, 256, 4, 4]            590,080
│    └─MaxPool2d: 2-12                   [1, 256, 2, 2]            --
│    └─ReLU: 2-13                        [1, 256, 2, 2]            --
├─Sequential: 1-2                        [1, 100]                  --
│    └─Dropout: 2-14                     [1, 1024]                 --
│    └─Linear: 2-15                      [1, 2048]                 2,099,200
│    └─ReLU: 2-16                        [1, 2048]                 --
│    └─Dropout: 2-17                     [1, 2048]                 --
│    └─Linear: 2-18                      [1, 2048]                 4,196,352
│    └─ReLU: 2-19                        [1, 2048]                 --
│    └─Linear: 2-20                      [1, 100]                  204,900
==========================================================================================
Total params: 8,752,036
Trainable params: 8,752,036
Non-trainable params: 0
Total mult-adds (M): 48.27
==========================================================================================
Input size (MB): 0.01
Forward/backward pass size (MB): 0.38
Params size (MB): 35.01
Estimated Total Size (MB): 35.40
…
		Top 1 Acc = 48.52%
		Top 5 Acc = 75.7%                                 
		Loss/Iteration: 0.8323660869236019

Epoch [120/120]:
		Specificity: 1.0
		Top 1 Acc = 48.12%
		Top 5 Acc = 75.78%                                 
		Loss/Iteration: 0.8361362272196196

------------------------------

Model: Branchy-AlexNet
==========================================================================================
Layer (type:depth-idx)                   Output Shape              Param #
==========================================================================================
BranchyAlexNet                           [1, 100]                  --
├─Sequential: 1-1                        [1, 64, 8, 8]             --
│    └─Conv2d: 2-1                       [1, 64, 16, 16]           1,792
│    └─MaxPool2d: 2-2                    [1, 64, 8, 8]             --
│    └─ReLU: 2-3                         [1, 64, 8, 8]             --
├─Sequential: 1-2                        [1, 128, 2, 2]            --
│    └─Conv2d: 2-4                       [1, 256, 8, 8]            147,712
│    └─MaxPool2d: 2-5                    [1, 256, 4, 4]            --
│    └─ReLU: 2-6                         [1, 256, 4, 4]            --
│    └─Conv2d: 2-7                       [1, 128, 4, 4]            295,040
│    └─MaxPool2d: 2-8                    [1, 128, 2, 2]            --
│    └─ReLU: 2-9                         [1, 128, 2, 2]            --
├─Sequential: 1-3                        [1, 100]                  --
│    └─Dropout: 2-10                     [1, 512]                  --
│    └─Linear: 2-11                      [1, 2048]                 1,050,624
│    └─ReLU: 2-12                        [1, 2048]                 --
│    └─Linear: 2-13                      [1, 100]                  204,900
├─Sequential: 1-4                        [1, 384, 4, 4]            --
│    └─Conv2d: 2-14                      [1, 192, 8, 8]            110,784
│    └─MaxPool2d: 2-15                   [1, 192, 4, 4]            --
│    └─ReLU: 2-16                        [1, 192, 4, 4]            --
│    └─Conv2d: 2-17                      [1, 384, 4, 4]            663,936
│    └─ReLU: 2-18                        [1, 384, 4, 4]            --
├─Sequential: 1-5                        [1, 256, 1, 1]            --
│    └─Conv2d: 2-19                      [1, 256, 2, 2]            884,992
│    └─MaxPool2d: 2-20                   [1, 256, 1, 1]            --
│    └─ReLU: 2-21                        [1, 256, 1, 1]            --
├─Sequential: 1-6                        [1, 100]                  --
│    └─Dropout: 2-22                     [1, 256]                  --
│    └─Linear: 2-23                      [1, 2048]                 526,336
│    └─ReLU: 2-24                        [1, 2048]                 --
│    └─Linear: 2-25                      [1, 100]                  204,900
├─Sequential: 1-7                        [1, 256, 2, 2]            --
│    └─Conv2d: 2-26                      [1, 256, 4, 4]            884,992
│    └─ReLU: 2-27                        [1, 256, 4, 4]            --
│    └─Conv2d: 2-28                      [1, 256, 4, 4]            590,080
│    └─MaxPool2d: 2-29                   [1, 256, 2, 2]            --
│    └─ReLU: 2-30                        [1, 256, 2, 2]            --
├─Sequential: 1-8                        [1, 100]                  --
│    └─Dropout: 2-31                     [1, 1024]                 --
│    └─Linear: 2-32                      [1, 2048]                 2,099,200
│    └─ReLU: 2-33                        [1, 2048]                 --
│    └─Dropout: 2-34                     [1, 2048]                 --
│    └─Linear: 2-35                      [1, 2048]                 4,196,352
│    └─ReLU: 2-36                        [1, 2048]                 --
│    └─Linear: 2-37                      [1, 100]                  204,900
==========================================================================================
Total params: 12,066,540
Trainable params: 12,066,540
Non-trainable params: 0
Total mult-adds (M): 67.97
==========================================================================================
Input size (MB): 0.01
Forward/backward pass size (MB): 0.57
Params size (MB): 48.27
Estimated Total Size (MB): 48.85
…
		Top 1 Acc = 50.02%
		Top 5 Acc = 78.28%                                 
		Loss/Iteration: 2.77174383435737

Epoch [120/120]:
		Specificity: 1.0
		Top 1 Acc = 49.44%
		Top 5 Acc = 77.64%                                 
		Loss/Iteration: 2.749406088990244

------------------------------

Model: Sem-HBN
==========================================================================================
Layer (type:depth-idx)                   Output Shape              Param #
==========================================================================================
SemHBN                                   [1, 100]                  --
├─Sequential: 1-1                        [1, 64, 8, 8]             --
│    └─Conv2d: 2-1                       [1, 64, 16, 16]           1,792
│    └─MaxPool2d: 2-2                    [1, 64, 8, 8]             --
│    └─ReLU: 2-3                         [1, 64, 8, 8]             --
├─Sequential: 1-2                        [1, 128, 2, 2]            --
│    └─Conv2d: 2-4                       [1, 256, 8, 8]            147,712
│    └─MaxPool2d: 2-5                    [1, 256, 4, 4]            --
│    └─ReLU: 2-6                         [1, 256, 4, 4]            --
│    └─Conv2d: 2-7                       [1, 128, 4, 4]            295,040
│    └─MaxPool2d: 2-8                    [1, 128, 2, 2]            --
│    └─ReLU: 2-9                         [1, 128, 2, 2]            --
├─Sequential: 1-3                        [1, 20]                   --
│    └─Dropout: 2-10                     [1, 512]                  --
│    └─Linear: 2-11                      [1, 2048]                 1,050,624
│    └─ReLU: 2-12                        [1, 2048]                 --
│    └─Linear: 2-13                      [1, 20]                   40,980
├─Sequential: 1-4                        [1, 384, 4, 4]            --
│    └─Conv2d: 2-14                      [1, 192, 8, 8]            110,784
│    └─MaxPool2d: 2-15                   [1, 192, 4, 4]            --
│    └─ReLU: 2-16                        [1, 192, 4, 4]            --
│    └─Conv2d: 2-17                      [1, 384, 4, 4]            663,936
│    └─ReLU: 2-18                        [1, 384, 4, 4]            --
├─Sequential: 1-5                        [1, 256, 1, 1]            --
│    └─Conv2d: 2-19                      [1, 256, 2, 2]            884,992
│    └─MaxPool2d: 2-20                   [1, 256, 1, 1]            --
│    └─ReLU: 2-21                        [1, 256, 1, 1]            --
├─Sequential: 1-6                        [1, 20]                   --
│    └─Dropout: 2-22                     [1, 256]                  --
│    └─Linear: 2-23                      [1, 2048]                 526,336
│    └─ReLU: 2-24                        [1, 2048]                 --
│    └─Linear: 2-25                      [1, 20]                   40,980
├─Sequential: 1-7                        [1, 256, 2, 2]            --
│    └─Conv2d: 2-26                      [1, 256, 4, 4]            884,992
│    └─ReLU: 2-27                        [1, 256, 4, 4]            --
│    └─Conv2d: 2-28                      [1, 256, 4, 4]            590,080
│    └─MaxPool2d: 2-29                   [1, 256, 2, 2]            --
│    └─ReLU: 2-30                        [1, 256, 2, 2]            --
├─Sequential: 1-8                        [1, 100]                  --
│    └─Dropout: 2-31                     [1, 1024]                 --
│    └─Linear: 2-32                      [1, 2048]                 2,099,200
│    └─ReLU: 2-33                        [1, 2048]                 --
│    └─Dropout: 2-34                     [1, 2048]                 --
│    └─Linear: 2-35                      [1, 2048]                 4,196,352
│    └─ReLU: 2-36                        [1, 2048]                 --
│    └─Linear: 2-37                      [1, 100]                  204,900
==========================================================================================
Total params: 11,738,700
Trainable params: 11,738,700
Non-trainable params: 0
Total mult-adds (M): 67.65
==========================================================================================
Input size (MB): 0.01
Forward/backward pass size (MB): 0.57
Params size (MB): 46.95
Estimated Total Size (MB): 47.53
…
		Top 1 Acc = 49.42%
		Top 5 Acc = 76.78%                                 
		Loss/Iteration: 2.1475785218856553

Epoch [120/120]:
		Specificity: 1.0
		Top 1 Acc = 49.6%
		Top 5 Acc = 77.86%                                 
		Loss/Iteration: 2.1182844801382585

------------------------------

Model: Super-HBN
==========================================================================================
Layer (type:depth-idx)                   Output Shape              Param #
==========================================================================================
SuperHBN                                 [1, 20]                   --
├─Sequential: 1-1                        [1, 64, 8, 8]             --
│    └─Conv2d: 2-1                       [1, 64, 16, 16]           1,792
│    └─MaxPool2d: 2-2                    [1, 64, 8, 8]             --
│    └─ReLU: 2-3                         [1, 64, 8, 8]             --
├─Sequential: 1-2                        [1, 128, 2, 2]            --
│    └─Conv2d: 2-4                       [1, 256, 8, 8]            147,712
│    └─MaxPool2d: 2-5                    [1, 256, 4, 4]            --
│    └─ReLU: 2-6                         [1, 256, 4, 4]            --
│    └─Conv2d: 2-7                       [1, 128, 4, 4]            295,040
│    └─MaxPool2d: 2-8                    [1, 128, 2, 2]            --
│    └─ReLU: 2-9                         [1, 128, 2, 2]            --
├─Sequential: 1-3                        [1, 2048]                 --
│    └─Dropout: 2-10                     [1, 512]                  --
│    └─Linear: 2-11                      [1, 2048]                 1,050,624
│    └─ReLU: 2-12                        [1, 2048]                 --
├─Sequential: 1-4                        [1, 100]                  --
│    └─Linear: 2-13                      [1, 100]                  204,900
├─Sequential: 1-5                        [1, 20]                   --
│    └─Linear: 2-14                      [1, 20]                   40,980
├─Sequential: 1-6                        [1, 384, 4, 4]            --
│    └─Conv2d: 2-15                      [1, 192, 8, 8]            110,784
│    └─MaxPool2d: 2-16                   [1, 192, 4, 4]            --
│    └─ReLU: 2-17                        [1, 192, 4, 4]            --
│    └─Conv2d: 2-18                      [1, 384, 4, 4]            663,936
│    └─ReLU: 2-19                        [1, 384, 4, 4]            --
├─Sequential: 1-7                        [1, 256, 1, 1]            --
│    └─Conv2d: 2-20                      [1, 256, 2, 2]            884,992
│    └─MaxPool2d: 2-21                   [1, 256, 1, 1]            --
│    └─ReLU: 2-22                        [1, 256, 1, 1]            --
├─Sequential: 1-8                        [1, 2048]                 --
│    └─Dropout: 2-23                     [1, 256]                  --
│    └─Linear: 2-24                      [1, 2048]                 526,336
│    └─ReLU: 2-25                        [1, 2048]                 --
├─Sequential: 1-9                        [1, 100]                  --
│    └─Linear: 2-26                      [1, 100]                  204,900
├─Sequential: 1-10                       [1, 20]                   --
│    └─Linear: 2-27                      [1, 20]                   40,980
├─Sequential: 1-11                       [1, 256, 2, 2]            --
│    └─Conv2d: 2-28                      [1, 256, 4, 4]            884,992
│    └─ReLU: 2-29                        [1, 256, 4, 4]            --
│    └─Conv2d: 2-30                      [1, 256, 4, 4]            590,080
│    └─MaxPool2d: 2-31                   [1, 256, 2, 2]            --
│    └─ReLU: 2-32                        [1, 256, 2, 2]            --
├─Sequential: 1-12                       [1, 2048]                 --
│    └─Dropout: 2-33                     [1, 1024]                 --
│    └─Linear: 2-34                      [1, 2048]                 2,099,200
│    └─ReLU: 2-35                        [1, 2048]                 --
│    └─Dropout: 2-36                     [1, 2048]                 --
│    └─Linear: 2-37                      [1, 2048]                 4,196,352
│    └─ReLU: 2-38                        [1, 2048]                 --
├─Sequential: 1-13                       [1, 100]                  --
│    └─Linear: 2-39                      [1, 100]                  204,900
├─Sequential: 1-14                       [1, 20]                   --
│    └─Linear: 2-40                      [1, 20]                   40,980
==========================================================================================
Total params: 12,189,480
Trainable params: 12,189,480
Non-trainable params: 0
Total mult-adds (M): 68.10
==========================================================================================
Input size (MB): 0.01
Forward/backward pass size (MB): 0.57
Params size (MB): 48.76
Estimated Total Size (MB): 49.34
…
		Top 1 Acc = 57.34%
		Top 5 Acc = 83.8%                                 
		Loss/Iteration: 5.273216711526567

Epoch [120/120]:
		Specificity: 0.5822784810126582
		Top 1 Acc = 57.38%
		Top 5 Acc = 84.24%                                 
		Loss/Iteration: 5.251860893585465

------------------------------

Model: TD-HBN
==========================================================================================
Layer (type:depth-idx)                   Output Shape              Param #
==========================================================================================
TD_HBN                                   [1, 100]                  --
├─Sequential: 1-1                        [1, 64, 8, 8]             --
│    └─Conv2d: 2-1                       [1, 64, 16, 16]           1,792
│    └─MaxPool2d: 2-2                    [1, 64, 8, 8]             --
│    └─ReLU: 2-3                         [1, 64, 8, 8]             --
├─Sequential: 1-2                        [1, 128, 2, 2]            --
│    └─Conv2d: 2-4                       [1, 256, 8, 8]            147,712
│    └─MaxPool2d: 2-5                    [1, 256, 4, 4]            --
│    └─ReLU: 2-6                         [1, 256, 4, 4]            --
│    └─Conv2d: 2-7                       [1, 128, 4, 4]            295,040
│    └─MaxPool2d: 2-8                    [1, 128, 2, 2]            --
│    └─ReLU: 2-9                         [1, 128, 2, 2]            --
├─Sequential: 1-3                        [1, 2048]                 --
│    └─Dropout: 2-10                     [1, 512]                  --
│    └─Linear: 2-11                      [1, 2048]                 1,050,624
│    └─ReLU: 2-12                        [1, 2048]                 --
├─Sequential: 1-4                        [1, 100]                  --
│    └─Linear: 2-13                      [1, 100]                  204,900
├─Sequential: 1-5                        [1, 20]                   --
│    └─Linear: 2-14                      [1, 20]                   40,980
├─Sequential: 1-6                        [1, 2]                    --
│    └─Linear: 2-15                      [1, 2]                    4,098
├─Sequential: 1-7                        [1, 384, 4, 4]            --
│    └─Conv2d: 2-16                      [1, 192, 8, 8]            110,784
│    └─MaxPool2d: 2-17                   [1, 192, 4, 4]            --
│    └─ReLU: 2-18                        [1, 192, 4, 4]            --
│    └─Conv2d: 2-19                      [1, 384, 4, 4]            663,936
│    └─ReLU: 2-20                        [1, 384, 4, 4]            --
├─Sequential: 1-8                        [1, 256, 1, 1]            --
│    └─Conv2d: 2-21                      [1, 256, 2, 2]            884,992
│    └─MaxPool2d: 2-22                   [1, 256, 1, 1]            --
│    └─ReLU: 2-23                        [1, 256, 1, 1]            --
├─Sequential: 1-9                        [1, 2048]                 --
│    └─Dropout: 2-24                     [1, 256]                  --
│    └─Linear: 2-25                      [1, 2048]                 526,336
│    └─ReLU: 2-26                        [1, 2048]                 --
├─Sequential: 1-10                       [1, 100]                  --
│    └─Linear: 2-27                      [1, 100]                  204,900
├─Sequential: 1-11                       [1, 20]                   --
│    └─Linear: 2-28                      [1, 20]                   40,980
├─Sequential: 1-12                       [1, 256, 2, 2]            --
│    └─Conv2d: 2-29                      [1, 256, 4, 4]            884,992
│    └─ReLU: 2-30                        [1, 256, 4, 4]            --
│    └─Conv2d: 2-31                      [1, 256, 4, 4]            590,080
│    └─MaxPool2d: 2-32                   [1, 256, 2, 2]            --
│    └─ReLU: 2-33                        [1, 256, 2, 2]            --
├─Sequential: 1-13                       [1, 2048]                 --
│    └─Dropout: 2-34                     [1, 1024]                 --
│    └─Linear: 2-35                      [1, 2048]                 2,099,200
│    └─ReLU: 2-36                        [1, 2048]                 --
│    └─Dropout: 2-37                     [1, 2048]                 --
│    └─Linear: 2-38                      [1, 2048]                 4,196,352
│    └─ReLU: 2-39                        [1, 2048]                 --
├─Sequential: 1-14                       [1, 100]                  --
│    └─Linear: 2-40                      [1, 100]                  204,900
├─Sequential: 1-15                       [1, 20]                   --
│    └─Linear: 2-41                      [1, 20]                   40,980
==========================================================================================
Total params: 12,193,578
Trainable params: 12,193,578
Non-trainable params: 0
Total mult-adds (M): 68.10
==========================================================================================
Input size (MB): 0.01
Forward/backward pass size (MB): 0.57
Params size (MB): 48.77
Estimated Total Size (MB): 49.35
…
