Args:
	mode: training
	batch_size: 256
	lr: 0.00015
	pt_lr: 1e-05
	weight_decay: 0.0005
	device: cuda
	num_epochs: 100


AlexNet
Model == AlexNet
Batch sizes: (train, val, test)=(256, 256, 256)

==========================================================================================
Layer (type:depth-idx)                   Output Shape              Param #
==========================================================================================
AlexNet                                  [1, 100]                  --
├─Sequential: 1-1                        [1, 256, 2, 2]            --
│    └─Conv2d: 2-1                       [1, 64, 16, 16]           1,792
│    └─MaxPool2d: 2-2                    [1, 64, 8, 8]             --
│    └─ReLU: 2-3                         [1, 64, 8, 8]             --
│    └─Conv2d: 2-4                       [1, 192, 8, 8]            110,784
│    └─MaxPool2d: 2-5                    [1, 192, 4, 4]            --
│    └─ReLU: 2-6                         [1, 192, 4, 4]            --
│    └─Conv2d: 2-7                       [1, 384, 4, 4]            663,936
│    └─ReLU: 2-8                         [1, 384, 4, 4]            --
│    └─Conv2d: 2-9                       [1, 256, 4, 4]            884,992
│    └─ReLU: 2-10                        [1, 256, 4, 4]            --
│    └─Conv2d: 2-11                      [1, 256, 4, 4]            590,080
│    └─MaxPool2d: 2-12                   [1, 256, 2, 2]            --
│    └─ReLU: 2-13                        [1, 256, 2, 2]            --
├─Sequential: 1-2                        [1, 100]                  --
│    └─Dropout: 2-14                     [1, 1024]                 --
│    └─Linear: 2-15                      [1, 4096]                 4,198,400
│    └─ReLU: 2-16                        [1, 4096]                 --
│    └─Dropout: 2-17                     [1, 4096]                 --
│    └─Linear: 2-18                      [1, 4096]                 16,781,312
│    └─ReLU: 2-19                        [1, 4096]                 --
│    └─Linear: 2-20                      [1, 100]                  409,700
==========================================================================================
Total params: 23,640,996
Trainable params: 23,640,996
Non-trainable params: 0
Total mult-adds (M): 63.16
==========================================================================================
Input size (MB): 0.01
Forward/backward pass size (MB): 0.41
Params size (MB): 94.56
Estimated Total Size (MB): 94.99
…
Epoch [100/100]:
		Specificity: 1.0
		Top 1 Acc = 45.78%
		Top 5 Acc = 75.18%                                 
		Loss/Iteration: 1.0514170209115201

------------------------------

||========================================||

Branchy-AlexNet
Model == Branchy-AlexNet
Batch sizes: (train, val, test)=(256, 256, 256)

==========================================================================================
Layer (type:depth-idx)                   Output Shape              Param #
==========================================================================================
BranchyAlexNet                           [1, 100]                  --
├─Sequential: 1-1                        [1, 64, 8, 8]             --
│    └─Conv2d: 2-1                       [1, 64, 16, 16]           1,792
│    └─MaxPool2d: 2-2                    [1, 64, 8, 8]             --
│    └─ReLU: 2-3                         [1, 64, 8, 8]             --
├─Sequential: 1-2                        [1, 128, 2, 2]            --
│    └─Conv2d: 2-4                       [1, 256, 8, 8]            147,712
│    └─MaxPool2d: 2-5                    [1, 256, 4, 4]            --
│    └─ReLU: 2-6                         [1, 256, 4, 4]            --
│    └─Conv2d: 2-7                       [1, 128, 4, 4]            295,040
│    └─MaxPool2d: 2-8                    [1, 128, 2, 2]            --
│    └─ReLU: 2-9                         [1, 128, 2, 2]            --
├─Sequential: 1-3                        [1, 100]                  --
│    └─Dropout: 2-10                     [1, 512]                  --
│    └─Linear: 2-11                      [1, 2048]                 1,050,624
│    └─ReLU: 2-12                        [1, 2048]                 --
│    └─Dropout: 2-13                     [1, 2048]                 --
│    └─Linear: 2-14                      [1, 2048]                 4,196,352
│    └─ReLU: 2-15                        [1, 2048]                 --
│    └─Linear: 2-16                      [1, 100]                  204,900
├─Sequential: 1-4                        [1, 384, 4, 4]            --
│    └─Conv2d: 2-17                      [1, 192, 8, 8]            110,784
│    └─MaxPool2d: 2-18                   [1, 192, 4, 4]            --
│    └─ReLU: 2-19                        [1, 192, 4, 4]            --
│    └─Conv2d: 2-20                      [1, 384, 4, 4]            663,936
│    └─ReLU: 2-21                        [1, 384, 4, 4]            --
├─Sequential: 1-5                        [1, 256, 1, 1]            --
│    └─Conv2d: 2-22                      [1, 256, 2, 2]            884,992
│    └─MaxPool2d: 2-23                   [1, 256, 1, 1]            --
│    └─ReLU: 2-24                        [1, 256, 1, 1]            --
├─Sequential: 1-6                        [1, 100]                  --
│    └─Dropout: 2-25                     [1, 256]                  --
│    └─Linear: 2-26                      [1, 2048]                 526,336
│    └─ReLU: 2-27                        [1, 2048]                 --
│    └─Dropout: 2-28                     [1, 2048]                 --
│    └─Linear: 2-29                      [1, 2048]                 4,196,352
│    └─ReLU: 2-30                        [1, 2048]                 --
│    └─Dropout: 2-31                     [1, 2048]                 --
│    └─Linear: 2-32                      [1, 100]                  204,900
├─Sequential: 1-7                        [1, 256, 2, 2]            --
│    └─Conv2d: 2-33                      [1, 256, 4, 4]            884,992
│    └─ReLU: 2-34                        [1, 256, 4, 4]            --
│    └─Conv2d: 2-35                      [1, 256, 4, 4]            590,080
│    └─MaxPool2d: 2-36                   [1, 256, 2, 2]            --
│    └─ReLU: 2-37                        [1, 256, 2, 2]            --
├─Sequential: 1-8                        [1, 100]                  --
│    └─Dropout: 2-38                     [1, 1024]                 --
│    └─Linear: 2-39                      [1, 4096]                 4,198,400
│    └─ReLU: 2-40                        [1, 4096]                 --
│    └─Dropout: 2-41                     [1, 4096]                 --
│    └─Linear: 2-42                      [1, 4096]                 16,781,312
│    └─ReLU: 2-43                        [1, 4096]                 --
│    └─Linear: 2-44                      [1, 100]                  409,700
==========================================================================================
Total params: 35,348,204
Trainable params: 35,348,204
Non-trainable params: 0
Total mult-adds (M): 91.26
==========================================================================================
Input size (MB): 0.01
Forward/backward pass size (MB): 0.63
Params size (MB): 141.39
Estimated Total Size (MB): 142.04
…
		Loss/Iteration: 4.2308363670652565

Epoch [100/100]:
		Specificity: 1.0
		Top 1 Acc = 47.7%
		Top 5 Acc = 75.9%                                 
		Loss/Iteration: 4.21795461259105

------------------------------

||========================================||

Sem-HBN
Model == Sem-HBN
Batch sizes: (train, val, test)=(256, 256, 256)

==========================================================================================
Layer (type:depth-idx)                   Output Shape              Param #
==========================================================================================
SemHBN                                   [1, 100]                  --
├─Sequential: 1-1                        [1, 64, 8, 8]             --
│    └─Conv2d: 2-1                       [1, 64, 16, 16]           1,792
│    └─MaxPool2d: 2-2                    [1, 64, 8, 8]             --
│    └─ReLU: 2-3                         [1, 64, 8, 8]             --
├─Sequential: 1-2                        [1, 128, 2, 2]            --
│    └─Conv2d: 2-4                       [1, 256, 8, 8]            147,712
│    └─MaxPool2d: 2-5                    [1, 256, 4, 4]            --
│    └─ReLU: 2-6                         [1, 256, 4, 4]            --
│    └─Conv2d: 2-7                       [1, 128, 4, 4]            295,040
│    └─MaxPool2d: 2-8                    [1, 128, 2, 2]            --
│    └─ReLU: 2-9                         [1, 128, 2, 2]            --
├─Sequential: 1-3                        [1, 20]                   --
│    └─Dropout: 2-10                     [1, 512]                  --
│    └─Linear: 2-11                      [1, 2048]                 1,050,624
│    └─ReLU: 2-12                        [1, 2048]                 --
│    └─Dropout: 2-13                     [1, 2048]                 --
│    └─Linear: 2-14                      [1, 2048]                 4,196,352
│    └─ReLU: 2-15                        [1, 2048]                 --
│    └─Linear: 2-16                      [1, 20]                   40,980
├─Sequential: 1-4                        [1, 384, 4, 4]            --
│    └─Conv2d: 2-17                      [1, 192, 8, 8]            110,784
│    └─MaxPool2d: 2-18                   [1, 192, 4, 4]            --
│    └─ReLU: 2-19                        [1, 192, 4, 4]            --
│    └─Conv2d: 2-20                      [1, 384, 4, 4]            663,936
│    └─ReLU: 2-21                        [1, 384, 4, 4]            --
├─Sequential: 1-5                        [1, 256, 1, 1]            --
│    └─Conv2d: 2-22                      [1, 256, 2, 2]            884,992
│    └─MaxPool2d: 2-23                   [1, 256, 1, 1]            --
│    └─ReLU: 2-24                        [1, 256, 1, 1]            --
├─Sequential: 1-6                        [1, 20]                   --
│    └─Dropout: 2-25                     [1, 256]                  --
│    └─Linear: 2-26                      [1, 2048]                 526,336
│    └─ReLU: 2-27                        [1, 2048]                 --
│    └─Dropout: 2-28                     [1, 2048]                 --
│    └─Linear: 2-29                      [1, 2048]                 4,196,352
│    └─ReLU: 2-30                        [1, 2048]                 --
│    └─Dropout: 2-31                     [1, 2048]                 --
│    └─Linear: 2-32                      [1, 20]                   40,980
├─Sequential: 1-7                        [1, 256, 2, 2]            --
│    └─Conv2d: 2-33                      [1, 256, 4, 4]            884,992
│    └─ReLU: 2-34                        [1, 256, 4, 4]            --
│    └─Conv2d: 2-35                      [1, 256, 4, 4]            590,080
│    └─MaxPool2d: 2-36                   [1, 256, 2, 2]            --
│    └─ReLU: 2-37                        [1, 256, 2, 2]            --
├─Sequential: 1-8                        [1, 100]                  --
│    └─Dropout: 2-38                     [1, 1024]                 --
│    └─Linear: 2-39                      [1, 4096]                 4,198,400
│    └─ReLU: 2-40                        [1, 4096]                 --
│    └─Dropout: 2-41                     [1, 4096]                 --
│    └─Linear: 2-42                      [1, 4096]                 16,781,312
│    └─ReLU: 2-43                        [1, 4096]                 --
│    └─Linear: 2-44                      [1, 100]                  409,700
==========================================================================================
Total params: 35,020,364
Trainable params: 35,020,364
Non-trainable params: 0
Total mult-adds (M): 90.93
==========================================================================================
Input size (MB): 0.01
Forward/backward pass size (MB): 0.63
Params size (MB): 140.08
Estimated Total Size (MB): 140.73
…
Epoch [100/100]:
		Specificity: 1.0
		Top 1 Acc = 48.84%
		Top 5 Acc = 77.18%                                 
		Loss/Iteration: 2.8669494566592304

------------------------------

||========================================||

Super-HBN
Model == Super-HBN
Batch sizes: (train, val, test)=(256, 256, 256)

==========================================================================================
Layer (type:depth-idx)                   Output Shape              Param #
==========================================================================================
SuperHBN                                 [1, 20]                   --
├─Sequential: 1-1                        [1, 64, 8, 8]             --
│    └─Conv2d: 2-1                       [1, 64, 16, 16]           1,792
│    └─MaxPool2d: 2-2                    [1, 64, 8, 8]             --
│    └─ReLU: 2-3                         [1, 64, 8, 8]             --
├─Sequential: 1-2                        [1, 128, 2, 2]            --
│    └─Conv2d: 2-4                       [1, 256, 8, 8]            147,712
│    └─MaxPool2d: 2-5                    [1, 256, 4, 4]            --
│    └─ReLU: 2-6                         [1, 256, 4, 4]            --
│    └─Conv2d: 2-7                       [1, 128, 4, 4]            295,040
│    └─MaxPool2d: 2-8                    [1, 128, 2, 2]            --
│    └─ReLU: 2-9                         [1, 128, 2, 2]            --
├─Sequential: 1-3                        [1, 2048]                 --
│    └─Dropout: 2-10                     [1, 512]                  --
│    └─Linear: 2-11                      [1, 2048]                 1,050,624
│    └─ReLU: 2-12                        [1, 2048]                 --
│    └─Dropout: 2-13                     [1, 2048]                 --
│    └─Linear: 2-14                      [1, 2048]                 4,196,352
│    └─ReLU: 2-15                        [1, 2048]                 --
├─Sequential: 1-4                        [1, 100]                  --
│    └─Linear: 2-16                      [1, 100]                  204,900
├─Sequential: 1-5                        [1, 20]                   --
│    └─Linear: 2-17                      [1, 20]                   40,980
├─Sequential: 1-6                        [1, 384, 4, 4]            --
│    └─Conv2d: 2-18                      [1, 192, 8, 8]            110,784
│    └─MaxPool2d: 2-19                   [1, 192, 4, 4]            --
│    └─ReLU: 2-20                        [1, 192, 4, 4]            --
│    └─Conv2d: 2-21                      [1, 384, 4, 4]            663,936
│    └─ReLU: 2-22                        [1, 384, 4, 4]            --
├─Sequential: 1-7                        [1, 256, 1, 1]            --
│    └─Conv2d: 2-23                      [1, 256, 2, 2]            884,992
│    └─MaxPool2d: 2-24                   [1, 256, 1, 1]            --
│    └─ReLU: 2-25                        [1, 256, 1, 1]            --
├─Sequential: 1-8                        [1, 2048]                 --
│    └─Dropout: 2-26                     [1, 256]                  --
│    └─Linear: 2-27                      [1, 2048]                 526,336
│    └─ReLU: 2-28                        [1, 2048]                 --
│    └─Dropout: 2-29                     [1, 2048]                 --
│    └─Linear: 2-30                      [1, 2048]                 4,196,352
│    └─ReLU: 2-31                        [1, 2048]                 --
│    └─Dropout: 2-32                     [1, 2048]                 --
├─Sequential: 1-9                        [1, 100]                  --
│    └─Linear: 2-33                      [1, 100]                  204,900
├─Sequential: 1-10                       [1, 20]                   --
│    └─Linear: 2-34                      [1, 20]                   40,980
├─Sequential: 1-11                       [1, 256, 2, 2]            --
│    └─Conv2d: 2-35                      [1, 256, 4, 4]            884,992
│    └─ReLU: 2-36                        [1, 256, 4, 4]            --
│    └─Conv2d: 2-37                      [1, 256, 4, 4]            590,080
│    └─MaxPool2d: 2-38                   [1, 256, 2, 2]            --
│    └─ReLU: 2-39                        [1, 256, 2, 2]            --
├─Sequential: 1-12                       [1, 4096]                 --
│    └─Dropout: 2-40                     [1, 1024]                 --
│    └─Linear: 2-41                      [1, 4096]                 4,198,400
│    └─ReLU: 2-42                        [1, 4096]                 --
│    └─Dropout: 2-43                     [1, 4096]                 --
│    └─Linear: 2-44                      [1, 4096]                 16,781,312
│    └─ReLU: 2-45                        [1, 4096]                 --
├─Sequential: 1-13                       [1, 100]                  --
│    └─Linear: 2-46                      [1, 100]                  409,700
├─Sequential: 1-14                       [1, 20]                   --
│    └─Linear: 2-47                      [1, 20]                   81,940
==========================================================================================
Total params: 35,512,104
Trainable params: 35,512,104
Non-trainable params: 0
Total mult-adds (M): 91.42
==========================================================================================
Input size (MB): 0.01
Forward/backward pass size (MB): 0.63
Params size (MB): 142.05
Estimated Total Size (MB): 142.69
…
		Loss/Iteration: 7.876532337882302

Epoch [100/100]:
		Specificity: 0.0
		Top 1 Acc = 62.16%
		Top 5 Acc = 89.88%                                 
		Loss/Iteration: 7.886137761852958

------------------------------

||========================================||

TD-HBN
Model == TD-HBN
Batch sizes: (train, val, test)=(256, 1, 1)

==========================================================================================
Layer (type:depth-idx)                   Output Shape              Param #
==========================================================================================
TD_HBN                                   [1, 20]                   --
├─Sequential: 1-1                        [1, 64, 8, 8]             --
│    └─Conv2d: 2-1                       [1, 64, 16, 16]           1,792
│    └─MaxPool2d: 2-2                    [1, 64, 8, 8]             --
│    └─ReLU: 2-3                         [1, 64, 8, 8]             --
├─Sequential: 1-2                        [1, 128, 2, 2]            --
│    └─Conv2d: 2-4                       [1, 256, 8, 8]            147,712
│    └─MaxPool2d: 2-5                    [1, 256, 4, 4]            --
│    └─ReLU: 2-6                         [1, 256, 4, 4]            --
│    └─Conv2d: 2-7                       [1, 128, 4, 4]            295,040
│    └─MaxPool2d: 2-8                    [1, 128, 2, 2]            --
│    └─ReLU: 2-9                         [1, 128, 2, 2]            --
├─Sequential: 1-3                        [1, 2048]                 --
│    └─Dropout: 2-10                     [1, 512]                  --
│    └─Linear: 2-11                      [1, 2048]                 1,050,624
│    └─ReLU: 2-12                        [1, 2048]                 --
│    └─Dropout: 2-13                     [1, 2048]                 --
│    └─Linear: 2-14                      [1, 2048]                 4,196,352
│    └─ReLU: 2-15                        [1, 2048]                 --
├─Sequential: 1-4                        [1, 100]                  --
│    └─Linear: 2-16                      [1, 100]                  204,900
├─Sequential: 1-5                        [1, 20]                   --
│    └─Linear: 2-17                      [1, 20]                   40,980
├─Sequential: 1-6                        [1, 2]                    --
│    └─Dropout: 2-18                     [1, 2048]                 --
│    └─Linear: 2-19                      [1, 128]                  262,272
│    └─ReLU: 2-20                        [1, 128]                  --
│    └─Dropout: 2-21                     [1, 128]                  --
│    └─Linear: 2-22                      [1, 2]                    258
├─Sequential: 1-7                        [1, 384, 4, 4]            --
│    └─Conv2d: 2-23                      [1, 192, 8, 8]            110,784
│    └─MaxPool2d: 2-24                   [1, 192, 4, 4]            --
│    └─ReLU: 2-25                        [1, 192, 4, 4]            --
│    └─Conv2d: 2-26                      [1, 384, 4, 4]            663,936
│    └─ReLU: 2-27                        [1, 384, 4, 4]            --
├─Sequential: 1-8                        [1, 256, 1, 1]            --
│    └─Conv2d: 2-28                      [1, 256, 2, 2]            884,992
│    └─MaxPool2d: 2-29                   [1, 256, 1, 1]            --
│    └─ReLU: 2-30                        [1, 256, 1, 1]            --
├─Sequential: 1-9                        [1, 2048]                 --
│    └─Dropout: 2-31                     [1, 256]                  --
│    └─Linear: 2-32                      [1, 2048]                 526,336
│    └─ReLU: 2-33                        [1, 2048]                 --
│    └─Dropout: 2-34                     [1, 2048]                 --
│    └─Linear: 2-35                      [1, 2048]                 4,196,352
│    └─ReLU: 2-36                        [1, 2048]                 --
│    └─Dropout: 2-37                     [1, 2048]                 --
├─Sequential: 1-10                       [1, 100]                  --
│    └─Linear: 2-38                      [1, 100]                  204,900
├─Sequential: 1-11                       [1, 20]                   --
│    └─Linear: 2-39                      [1, 20]                   40,980
├─Sequential: 1-12                       [1, 256, 2, 2]            --
│    └─Conv2d: 2-40                      [1, 256, 4, 4]            884,992
│    └─ReLU: 2-41                        [1, 256, 4, 4]            --
│    └─Conv2d: 2-42                      [1, 256, 4, 4]            590,080
│    └─MaxPool2d: 2-43                   [1, 256, 2, 2]            --
│    └─ReLU: 2-44                        [1, 256, 2, 2]            --
├─Sequential: 1-13                       [1, 4096]                 --
│    └─Dropout: 2-45                     [1, 1024]                 --
│    └─Linear: 2-46                      [1, 4096]                 4,198,400
│    └─ReLU: 2-47                        [1, 4096]                 --
│    └─Dropout: 2-48                     [1, 4096]                 --
│    └─Linear: 2-49                      [1, 4096]                 16,781,312
│    └─ReLU: 2-50                        [1, 4096]                 --
├─Sequential: 1-14                       [1, 100]                  --
│    └─Linear: 2-51                      [1, 100]                  409,700
├─Sequential: 1-15                       [1, 20]                   --
│    └─Linear: 2-52                      [1, 20]                   81,940
==========================================================================================
Total params: 35,774,634
Trainable params: 35,774,634
Non-trainable params: 0
Total mult-adds (M): 91.68
==========================================================================================
Input size (MB): 0.01
Forward/backward pass size (MB): 0.63
Params size (MB): 143.10
Estimated Total Size (MB): 143.75
…
