Args:
	mode: training
	batch_size: 256
	lr: 0.00015
	pt_lr: 5e-05
	weight_decay: 0.0005
	device: cuda
	num_epochs: 100


Model: AlexNet
Batch sizes: (train, val, test)=(256, 256, 256)

==========================================================================================
Layer (type:depth-idx)                   Output Shape              Param #
==========================================================================================
AlexNet                                  [1, 100]                  --
├─Sequential: 1-1                        [1, 256, 2, 2]            --
│    └─Conv2d: 2-1                       [1, 64, 16, 16]           1,792
│    └─MaxPool2d: 2-2                    [1, 64, 8, 8]             --
│    └─ReLU: 2-3                         [1, 64, 8, 8]             --
│    └─Conv2d: 2-4                       [1, 192, 8, 8]            110,784
│    └─MaxPool2d: 2-5                    [1, 192, 4, 4]            --
│    └─ReLU: 2-6                         [1, 192, 4, 4]            --
│    └─Conv2d: 2-7                       [1, 384, 4, 4]            663,936
│    └─ReLU: 2-8                         [1, 384, 4, 4]            --
│    └─Conv2d: 2-9                       [1, 256, 4, 4]            884,992
│    └─ReLU: 2-10                        [1, 256, 4, 4]            --
│    └─Conv2d: 2-11                      [1, 256, 4, 4]            590,080
│    └─MaxPool2d: 2-12                   [1, 256, 2, 2]            --
│    └─ReLU: 2-13                        [1, 256, 2, 2]            --
├─Sequential: 1-2                        [1, 100]                  --
│    └─Dropout: 2-14                     [1, 1024]                 --
│    └─Linear: 2-15                      [1, 4096]                 4,198,400
│    └─ReLU: 2-16                        [1, 4096]                 --
│    └─Dropout: 2-17                     [1, 4096]                 --
│    └─Linear: 2-18                      [1, 4096]                 16,781,312
│    └─ReLU: 2-19                        [1, 4096]                 --
│    └─Linear: 2-20                      [1, 100]                  409,700
==========================================================================================
Total params: 23,640,996
Trainable params: 23,640,996
Non-trainable params: 0
Total mult-adds (M): 63.16
==========================================================================================
Input size (MB): 0.01
Forward/backward pass size (MB): 0.41
Params size (MB): 94.56
Estimated Total Size (MB): 94.99
…
		Loss/Iteration: 1.0507748563858597

Epoch [100/100]:
		Specificity: 1.0
		Top 1 Acc = 45.78%
		Top 5 Acc = 75.18%                                 
		Loss/Iteration: 1.0514170209115201

------------------------------

||========================================||

Model: Branchy-AlexNet
Batch sizes: (train, val, test)=(256, 256, 256)

==========================================================================================
Layer (type:depth-idx)                   Output Shape              Param #
==========================================================================================
BranchyAlexNet                           [1, 100]                  --
├─Sequential: 1-1                        [1, 64, 8, 8]             --
│    └─Conv2d: 2-1                       [1, 64, 16, 16]           1,792
│    └─MaxPool2d: 2-2                    [1, 64, 8, 8]             --
│    └─ReLU: 2-3                         [1, 64, 8, 8]             --
├─Sequential: 1-2                        [1, 128, 2, 2]            --
│    └─Conv2d: 2-4                       [1, 256, 8, 8]            147,712
│    └─MaxPool2d: 2-5                    [1, 256, 4, 4]            --
│    └─ReLU: 2-6                         [1, 256, 4, 4]            --
│    └─Conv2d: 2-7                       [1, 128, 4, 4]            295,040
│    └─MaxPool2d: 2-8                    [1, 128, 2, 2]            --
│    └─ReLU: 2-9                         [1, 128, 2, 2]            --
├─Sequential: 1-3                        [1, 100]                  --
│    └─Dropout: 2-10                     [1, 512]                  --
│    └─Linear: 2-11                      [1, 2048]                 1,050,624
│    └─ReLU: 2-12                        [1, 2048]                 --
│    └─Dropout: 2-13                     [1, 2048]                 --
│    └─Linear: 2-14                      [1, 2048]                 4,196,352
│    └─Dropout: 2-15                     [1, 2048]                 --
│    └─Linear: 2-16                      [1, 100]                  204,900
├─Sequential: 1-4                        [1, 384, 4, 4]            --
│    └─Conv2d: 2-17                      [1, 192, 8, 8]            110,784
│    └─MaxPool2d: 2-18                   [1, 192, 4, 4]            --
│    └─ReLU: 2-19                        [1, 192, 4, 4]            --
│    └─Conv2d: 2-20                      [1, 384, 4, 4]            663,936
│    └─ReLU: 2-21                        [1, 384, 4, 4]            --
├─Sequential: 1-5                        [1, 256, 1, 1]            --
│    └─Conv2d: 2-22                      [1, 256, 2, 2]            884,992
│    └─MaxPool2d: 2-23                   [1, 256, 1, 1]            --
│    └─ReLU: 2-24                        [1, 256, 1, 1]            --
├─Sequential: 1-6                        [1, 100]                  --
│    └─Dropout: 2-25                     [1, 256]                  --
│    └─Linear: 2-26                      [1, 2048]                 526,336
│    └─ReLU: 2-27                        [1, 2048]                 --
│    └─Dropout: 2-28                     [1, 2048]                 --
│    └─Linear: 2-29                      [1, 100]                  204,900
├─Sequential: 1-7                        [1, 256, 2, 2]            --
│    └─Conv2d: 2-30                      [1, 256, 4, 4]            884,992
│    └─ReLU: 2-31                        [1, 256, 4, 4]            --
│    └─Conv2d: 2-32                      [1, 256, 4, 4]            590,080
│    └─MaxPool2d: 2-33                   [1, 256, 2, 2]            --
│    └─ReLU: 2-34                        [1, 256, 2, 2]            --
├─Sequential: 1-8                        [1, 100]                  --
│    └─Dropout: 2-35                     [1, 1024]                 --
│    └─Linear: 2-36                      [1, 4096]                 4,198,400
│    └─ReLU: 2-37                        [1, 4096]                 --
│    └─Dropout: 2-38                     [1, 4096]                 --
│    └─Linear: 2-39                      [1, 100]                  409,700
==========================================================================================
Total params: 14,370,540
Trainable params: 14,370,540
Non-trainable params: 0
Total mult-adds (M): 70.28
==========================================================================================
Input size (MB): 0.01
Forward/backward pass size (MB): 0.58
Params size (MB): 57.48
Estimated Total Size (MB): 58.08
…
		Loss/Iteration: 4.699623441154307

Epoch [100/100]:
		Specificity: 1.0
		Top 1 Acc = 49.66%
		Top 5 Acc = 77.98%                                 
		Loss/Iteration: 4.682020217180252

------------------------------

||========================================||

Model: Sem-HBN
Batch sizes: (train, val, test)=(256, 256, 256)

==========================================================================================
Layer (type:depth-idx)                   Output Shape              Param #
==========================================================================================
SemHBN                                   [1, 100]                  --
├─Sequential: 1-1                        [1, 64, 8, 8]             --
│    └─Conv2d: 2-1                       [1, 64, 16, 16]           1,792
│    └─MaxPool2d: 2-2                    [1, 64, 8, 8]             --
│    └─ReLU: 2-3                         [1, 64, 8, 8]             --
├─Sequential: 1-2                        [1, 128, 2, 2]            --
│    └─Conv2d: 2-4                       [1, 256, 8, 8]            147,712
│    └─MaxPool2d: 2-5                    [1, 256, 4, 4]            --
│    └─ReLU: 2-6                         [1, 256, 4, 4]            --
│    └─Conv2d: 2-7                       [1, 128, 4, 4]            295,040
│    └─MaxPool2d: 2-8                    [1, 128, 2, 2]            --
│    └─ReLU: 2-9                         [1, 128, 2, 2]            --
├─Sequential: 1-3                        [1, 20]                   --
│    └─Dropout: 2-10                     [1, 512]                  --
│    └─Linear: 2-11                      [1, 2048]                 1,050,624
│    └─ReLU: 2-12                        [1, 2048]                 --
│    └─Dropout: 2-13                     [1, 2048]                 --
│    └─Linear: 2-14                      [1, 2048]                 4,196,352
│    └─Dropout: 2-15                     [1, 2048]                 --
│    └─Linear: 2-16                      [1, 20]                   40,980
├─Sequential: 1-4                        [1, 384, 4, 4]            --
│    └─Conv2d: 2-17                      [1, 192, 8, 8]            110,784
│    └─MaxPool2d: 2-18                   [1, 192, 4, 4]            --
│    └─ReLU: 2-19                        [1, 192, 4, 4]            --
│    └─Conv2d: 2-20                      [1, 384, 4, 4]            663,936
│    └─ReLU: 2-21                        [1, 384, 4, 4]            --
├─Sequential: 1-5                        [1, 256, 1, 1]            --
│    └─Conv2d: 2-22                      [1, 256, 2, 2]            884,992
│    └─MaxPool2d: 2-23                   [1, 256, 1, 1]            --
│    └─ReLU: 2-24                        [1, 256, 1, 1]            --
├─Sequential: 1-6                        [1, 20]                   --
│    └─Dropout: 2-25                     [1, 256]                  --
│    └─Linear: 2-26                      [1, 2048]                 526,336
│    └─ReLU: 2-27                        [1, 2048]                 --
│    └─Dropout: 2-28                     [1, 2048]                 --
│    └─Linear: 2-29                      [1, 20]                   40,980
├─Sequential: 1-7                        [1, 256, 2, 2]            --
│    └─Conv2d: 2-30                      [1, 256, 4, 4]            884,992
│    └─ReLU: 2-31                        [1, 256, 4, 4]            --
│    └─Conv2d: 2-32                      [1, 256, 4, 4]            590,080
│    └─MaxPool2d: 2-33                   [1, 256, 2, 2]            --
│    └─ReLU: 2-34                        [1, 256, 2, 2]            --
├─Sequential: 1-8                        [1, 100]                  --
│    └─Dropout: 2-35                     [1, 1024]                 --
│    └─Linear: 2-36                      [1, 4096]                 4,198,400
│    └─ReLU: 2-37                        [1, 4096]                 --
│    └─Dropout: 2-38                     [1, 4096]                 --
│    └─Linear: 2-39                      [1, 100]                  409,700
==========================================================================================
Total params: 14,042,700
Trainable params: 14,042,700
Non-trainable params: 0
Total mult-adds (M): 69.95
==========================================================================================
Input size (MB): 0.01
Forward/backward pass size (MB): 0.58
Params size (MB): 56.17
Estimated Total Size (MB): 56.77
…
		Loss/Iteration: 3.352840396490964

Epoch [100/100]:
		Specificity: 1.0
		Top 1 Acc = 48.58%
		Top 5 Acc = 77.96%                                 
		Loss/Iteration: 3.351020498709245

------------------------------

||========================================||

Model: Super-HBN
Batch sizes: (train, val, test)=(256, 256, 256)

==========================================================================================
Layer (type:depth-idx)                   Output Shape              Param #
==========================================================================================
SuperHBN                                 [1, 20]                   --
├─Sequential: 1-1                        [1, 64, 8, 8]             --
│    └─Conv2d: 2-1                       [1, 64, 16, 16]           1,792
│    └─MaxPool2d: 2-2                    [1, 64, 8, 8]             --
│    └─ReLU: 2-3                         [1, 64, 8, 8]             --
├─Sequential: 1-2                        [1, 128, 2, 2]            --
│    └─Conv2d: 2-4                       [1, 256, 8, 8]            147,712
│    └─MaxPool2d: 2-5                    [1, 256, 4, 4]            --
│    └─ReLU: 2-6                         [1, 256, 4, 4]            --
│    └─Conv2d: 2-7                       [1, 128, 4, 4]            295,040
│    └─MaxPool2d: 2-8                    [1, 128, 2, 2]            --
│    └─ReLU: 2-9                         [1, 128, 2, 2]            --
├─Sequential: 1-3                        [1, 100]                  --
│    └─Dropout: 2-10                     [1, 512]                  --
│    └─Linear: 2-11                      [1, 2048]                 1,050,624
│    └─ReLU: 2-12                        [1, 2048]                 --
│    └─Dropout: 2-13                     [1, 2048]                 --
│    └─Linear: 2-14                      [1, 2048]                 4,196,352
│    └─ReLU: 2-15                        [1, 2048]                 --
│    └─Linear: 2-16                      [1, 100]                  204,900
├─Sequential: 1-4                        [1, 20]                   --
│    └─Dropout: 2-17                     [1, 512]                  --
│    └─Linear: 2-18                      [1, 2048]                 1,050,624
│    └─ReLU: 2-19                        [1, 2048]                 --
│    └─Dropout: 2-20                     [1, 2048]                 --
│    └─Linear: 2-21                      [1, 2048]                 4,196,352
│    └─ReLU: 2-22                        [1, 2048]                 --
│    └─Linear: 2-23                      [1, 20]                   40,980
├─Sequential: 1-5                        [1, 384, 4, 4]            --
│    └─Conv2d: 2-24                      [1, 192, 8, 8]            110,784
│    └─MaxPool2d: 2-25                   [1, 192, 4, 4]            --
│    └─ReLU: 2-26                        [1, 192, 4, 4]            --
│    └─Conv2d: 2-27                      [1, 384, 4, 4]            663,936
│    └─ReLU: 2-28                        [1, 384, 4, 4]            --
├─Sequential: 1-6                        [1, 256, 1, 1]            --
│    └─Conv2d: 2-29                      [1, 256, 2, 2]            884,992
│    └─MaxPool2d: 2-30                   [1, 256, 1, 1]            --
│    └─ReLU: 2-31                        [1, 256, 1, 1]            --
├─Sequential: 1-7                        [1, 100]                  --
│    └─Dropout: 2-32                     [1, 256]                  --
│    └─Linear: 2-33                      [1, 2048]                 526,336
│    └─ReLU: 2-34                        [1, 2048]                 --
│    └─Dropout: 2-35                     [1, 2048]                 --
│    └─Linear: 2-36                      [1, 100]                  204,900
├─Sequential: 1-8                        [1, 20]                   --
│    └─Dropout: 2-37                     [1, 256]                  --
│    └─Linear: 2-38                      [1, 2048]                 526,336
│    └─ReLU: 2-39                        [1, 2048]                 --
│    └─Dropout: 2-40                     [1, 2048]                 --
│    └─Linear: 2-41                      [1, 20]                   40,980
├─Sequential: 1-9                        [1, 256, 2, 2]            --
│    └─Conv2d: 2-42                      [1, 256, 4, 4]            884,992
│    └─ReLU: 2-43                        [1, 256, 4, 4]            --
│    └─Conv2d: 2-44                      [1, 256, 4, 4]            590,080
│    └─MaxPool2d: 2-45                   [1, 256, 2, 2]            --
│    └─ReLU: 2-46                        [1, 256, 2, 2]            --
├─Sequential: 1-10                       [1, 4096]                 --
│    └─Dropout: 2-47                     [1, 1024]                 --
│    └─Linear: 2-48                      [1, 4096]                 4,198,400
│    └─ReLU: 2-49                        [1, 4096]                 --
├─Sequential: 1-11                       [1, 100]                  --
│    └─Linear: 2-50                      [1, 100]                  409,700
├─Sequential: 1-12                       [1, 20]                   --
│    └─Linear: 2-51                      [1, 20]                   81,940
==========================================================================================
Total params: 20,307,752
Trainable params: 20,307,752
Non-trainable params: 0
Total mult-adds (M): 76.22
==========================================================================================
Input size (MB): 0.01
Forward/backward pass size (MB): 0.63
Params size (MB): 81.23
Estimated Total Size (MB): 81.88
…
		Loss/Iteration: 8.019187992269343

Epoch [100/100]:
		Specificity: 1.0
		Top 1 Acc = 46.36%
		Top 5 Acc = 75.3%                                 
		Loss/Iteration: 7.962151882323352

------------------------------

||========================================||

Model: TD-HBN
Batch sizes: (train, val, test)=(256, 1, 1)

==========================================================================================
Layer (type:depth-idx)                   Output Shape              Param #
==========================================================================================
TD_HBN                                   [1, 20]                   --
├─Sequential: 1-1                        [1, 64, 8, 8]             --
│    └─Conv2d: 2-1                       [1, 64, 16, 16]           1,792
│    └─MaxPool2d: 2-2                    [1, 64, 8, 8]             --
│    └─ReLU: 2-3                         [1, 64, 8, 8]             --
├─Sequential: 1-2                        [1, 128, 2, 2]            --
│    └─Conv2d: 2-4                       [1, 256, 8, 8]            147,712
│    └─MaxPool2d: 2-5                    [1, 256, 4, 4]            --
│    └─ReLU: 2-6                         [1, 256, 4, 4]            --
│    └─Conv2d: 2-7                       [1, 128, 4, 4]            295,040
│    └─MaxPool2d: 2-8                    [1, 128, 2, 2]            --
│    └─ReLU: 2-9                         [1, 128, 2, 2]            --
├─Sequential: 1-3                        [1, 2048]                 --
│    └─Dropout: 2-10                     [1, 512]                  --
│    └─Linear: 2-11                      [1, 2048]                 1,050,624
│    └─ReLU: 2-12                        [1, 2048]                 --
│    └─Dropout: 2-13                     [1, 2048]                 --
│    └─Linear: 2-14                      [1, 2048]                 4,196,352
│    └─Dropout: 2-15                     [1, 2048]                 --
├─Sequential: 1-4                        [1, 100]                  --
│    └─Dropout: 2-16                     [1, 2048]                 --
│    └─Linear: 2-17                      [1, 100]                  204,900
├─Sequential: 1-5                        [1, 20]                   --
│    └─Dropout: 2-18                     [1, 2048]                 --
│    └─Linear: 2-19                      [1, 20]                   40,980
├─Sequential: 1-6                        [1, 2]                    --
│    └─Linear: 2-20                      [1, 2]                    4,098
├─Sequential: 1-7                        [1, 384, 4, 4]            --
│    └─Conv2d: 2-21                      [1, 192, 8, 8]            110,784
│    └─MaxPool2d: 2-22                   [1, 192, 4, 4]            --
│    └─ReLU: 2-23                        [1, 192, 4, 4]            --
│    └─Conv2d: 2-24                      [1, 384, 4, 4]            663,936
│    └─ReLU: 2-25                        [1, 384, 4, 4]            --
├─Sequential: 1-8                        [1, 256, 1, 1]            --
│    └─Conv2d: 2-26                      [1, 256, 2, 2]            884,992
│    └─MaxPool2d: 2-27                   [1, 256, 1, 1]            --
│    └─ReLU: 2-28                        [1, 256, 1, 1]            --
├─Sequential: 1-9                        [1, 100]                  --
│    └─Dropout: 2-29                     [1, 256]                  --
│    └─Linear: 2-30                      [1, 2048]                 526,336
│    └─ReLU: 2-31                        [1, 2048]                 --
│    └─Dropout: 2-32                     [1, 2048]                 --
│    └─Linear: 2-33                      [1, 100]                  204,900
├─Sequential: 1-10                       [1, 20]                   --
│    └─Dropout: 2-34                     [1, 256]                  --
│    └─Linear: 2-35                      [1, 2048]                 526,336
│    └─ReLU: 2-36                        [1, 2048]                 --
│    └─Dropout: 2-37                     [1, 2048]                 --
│    └─Linear: 2-38                      [1, 20]                   40,980
├─Sequential: 1-11                       [1, 256, 2, 2]            --
│    └─Conv2d: 2-39                      [1, 256, 4, 4]            884,992
│    └─ReLU: 2-40                        [1, 256, 4, 4]            --
│    └─Conv2d: 2-41                      [1, 256, 4, 4]            590,080
│    └─MaxPool2d: 2-42                   [1, 256, 2, 2]            --
│    └─ReLU: 2-43                        [1, 256, 2, 2]            --
├─Sequential: 1-12                       [1, 4096]                 --
│    └─Dropout: 2-44                     [1, 1024]                 --
│    └─Linear: 2-45                      [1, 4096]                 4,198,400
│    └─ReLU: 2-46                        [1, 4096]                 --
│    └─Dropout: 2-47                     [1, 4096]                 --
│    └─Linear: 2-48                      [1, 4096]                 16,781,312
│    └─ReLU: 2-49                        [1, 4096]                 --
├─Sequential: 1-13                       [1, 100]                  --
│    └─Linear: 2-50                      [1, 100]                  409,700
├─Sequential: 1-14                       [1, 20]                   --
│    └─Linear: 2-51                      [1, 20]                   81,940
==========================================================================================
Total params: 31,846,186
Trainable params: 31,846,186
Non-trainable params: 0
Total mult-adds (M): 87.75
==========================================================================================
Input size (MB): 0.01
Forward/backward pass size (MB): 0.63
Params size (MB): 127.38
Estimated Total Size (MB): 128.03
…
