Args:
	mode: training
	batch_size: 256
	lr: 0.00015
	pt_lr: 1e-05
	weight_decay: 0.0005
	device: cuda
	num_epochs: 1


Model == Sem-HBN

==========================================================================================
Layer (type:depth-idx)                   Output Shape              Param #
==========================================================================================
SemHBN                                   [1, 100]                  --
├─Sequential: 1-1                        [1, 64, 8, 8]             --
│    └─Conv2d: 2-1                       [1, 64, 16, 16]           1,792
│    └─MaxPool2d: 2-2                    [1, 64, 8, 8]             --
│    └─ReLU: 2-3                         [1, 64, 8, 8]             --
├─Sequential: 1-2                        [1, 128, 2, 2]            --
│    └─Conv2d: 2-4                       [1, 256, 8, 8]            147,712
│    └─MaxPool2d: 2-5                    [1, 256, 4, 4]            --
│    └─ReLU: 2-6                         [1, 256, 4, 4]            --
│    └─Conv2d: 2-7                       [1, 128, 4, 4]            295,040
│    └─MaxPool2d: 2-8                    [1, 128, 2, 2]            --
│    └─ReLU: 2-9                         [1, 128, 2, 2]            --
├─Sequential: 1-3                        [1, 20]                   --
│    └─Dropout: 2-10                     [1, 512]                  --
│    └─Linear: 2-11                      [1, 2048]                 1,050,624
│    └─ReLU: 2-12                        [1, 2048]                 --
│    └─Dropout: 2-13                     [1, 2048]                 --
│    └─Linear: 2-14                      [1, 2048]                 4,196,352
│    └─ReLU: 2-15                        [1, 2048]                 --
│    └─Linear: 2-16                      [1, 20]                   40,980
├─Sequential: 1-4                        [1, 384, 4, 4]            --
│    └─Conv2d: 2-17                      [1, 192, 8, 8]            110,784
│    └─MaxPool2d: 2-18                   [1, 192, 4, 4]            --
│    └─ReLU: 2-19                        [1, 192, 4, 4]            --
│    └─Conv2d: 2-20                      [1, 384, 4, 4]            663,936
│    └─ReLU: 2-21                        [1, 384, 4, 4]            --
├─Sequential: 1-5                        [1, 256, 1, 1]            --
│    └─Conv2d: 2-22                      [1, 256, 2, 2]            884,992
│    └─MaxPool2d: 2-23                   [1, 256, 1, 1]            --
│    └─ReLU: 2-24                        [1, 256, 1, 1]            --
├─Sequential: 1-6                        [1, 20]                   --
│    └─Dropout: 2-25                     [1, 256]                  --
│    └─Linear: 2-26                      [1, 2048]                 526,336
│    └─ReLU: 2-27                        [1, 2048]                 --
│    └─Dropout: 2-28                     [1, 2048]                 --
│    └─Linear: 2-29                      [1, 2048]                 4,196,352
│    └─ReLU: 2-30                        [1, 2048]                 --
│    └─Dropout: 2-31                     [1, 2048]                 --
│    └─Linear: 2-32                      [1, 20]                   40,980
├─Sequential: 1-7                        [1, 256, 2, 2]            --
│    └─Conv2d: 2-33                      [1, 256, 4, 4]            884,992
│    └─ReLU: 2-34                        [1, 256, 4, 4]            --
│    └─Conv2d: 2-35                      [1, 256, 4, 4]            590,080
│    └─MaxPool2d: 2-36                   [1, 256, 2, 2]            --
│    └─ReLU: 2-37                        [1, 256, 2, 2]            --
├─Sequential: 1-8                        [1, 100]                  --
│    └─Dropout: 2-38                     [1, 1024]                 --
│    └─Linear: 2-39                      [1, 4096]                 4,198,400
│    └─ReLU: 2-40                        [1, 4096]                 --
│    └─Dropout: 2-41                     [1, 4096]                 --
│    └─Linear: 2-42                      [1, 4096]                 16,781,312
│    └─ReLU: 2-43                        [1, 4096]                 --
│    └─Linear: 2-44                      [1, 100]                  409,700
==========================================================================================
Total params: 35,020,364
Trainable params: 35,020,364
Non-trainable params: 0
Total mult-adds (M): 90.93
==========================================================================================
Input size (MB): 0.01
Forward/backward pass size (MB): 0.63
Params size (MB): 140.08
Estimated Total Size (MB): 140.73
…
