Args:
	mode: training
	batch_size: 256
	lr: 0.0005
	weight_decay: 0.0001
	device: cuda
	num_epochs: 5


Model == AlexNet

torch.Size([1, 3, 32, 32])
==========================================================================================
Layer (type:depth-idx)                   Output Shape              Param #
==========================================================================================
AlexNet                                  [1, 100]                  --
├─Sequential: 1-1                        [1, 256, 2, 2]            --
│    └─Conv2d: 2-1                       [1, 64, 16, 16]           1,792
│    └─MaxPool2d: 2-2                    [1, 64, 8, 8]             --
│    └─ReLU: 2-3                         [1, 64, 8, 8]             --
│    └─Conv2d: 2-4                       [1, 192, 8, 8]            110,784
│    └─MaxPool2d: 2-5                    [1, 192, 4, 4]            --
│    └─ReLU: 2-6                         [1, 192, 4, 4]            --
│    └─Conv2d: 2-7                       [1, 384, 4, 4]            663,936
│    └─ReLU: 2-8                         [1, 384, 4, 4]            --
│    └─Conv2d: 2-9                       [1, 256, 4, 4]            884,992
│    └─ReLU: 2-10                        [1, 256, 4, 4]            --
│    └─Conv2d: 2-11                      [1, 256, 4, 4]            590,080
│    └─MaxPool2d: 2-12                   [1, 256, 2, 2]            --
│    └─ReLU: 2-13                        [1, 256, 2, 2]            --
├─Sequential: 1-2                        [1, 100]                  --
│    └─Dropout: 2-14                     [1, 1024]                 --
│    └─Linear: 2-15                      [1, 4096]                 4,198,400
│    └─ReLU: 2-16                        [1, 4096]                 --
│    └─Dropout: 2-17                     [1, 4096]                 --
│    └─Linear: 2-18                      [1, 4096]                 16,781,312
│    └─ReLU: 2-19                        [1, 4096]                 --
│    └─Linear: 2-20                      [1, 100]                  409,700
==========================================================================================
Total params: 23,640,996
Trainable params: 23,640,996
Non-trainable params: 0
Total mult-adds (M): 63.16
==========================================================================================
Input size (MB): 0.01
Forward/backward pass size (MB): 0.41
Params size (MB): 94.56
Estimated Total Size (MB): 94.99
…
