Args:
	mode: training
	batch_size: 64
	lr: 0.00015
	pt_lr: 5e-05
	weight_decay: 0.0005
	device: cuda
	num_epochs: 100


Model: AlexNet
==========================================================================================
Layer (type:depth-idx)                   Output Shape              Param #
==========================================================================================
AlexNet                                  [1, 100]                  --
├─Sequential: 1-1                        [1, 256, 2, 2]            --
│    └─Conv2d: 2-1                       [1, 64, 16, 16]           1,792
│    └─MaxPool2d: 2-2                    [1, 64, 8, 8]             --
│    └─ReLU: 2-3                         [1, 64, 8, 8]             --
│    └─Conv2d: 2-4                       [1, 192, 8, 8]            110,784
│    └─MaxPool2d: 2-5                    [1, 192, 4, 4]            --
│    └─ReLU: 2-6                         [1, 192, 4, 4]            --
│    └─Conv2d: 2-7                       [1, 384, 4, 4]            663,936
│    └─ReLU: 2-8                         [1, 384, 4, 4]            --
│    └─Conv2d: 2-9                       [1, 256, 4, 4]            884,992
│    └─ReLU: 2-10                        [1, 256, 4, 4]            --
│    └─Conv2d: 2-11                      [1, 256, 4, 4]            590,080
│    └─MaxPool2d: 2-12                   [1, 256, 2, 2]            --
│    └─ReLU: 2-13                        [1, 256, 2, 2]            --
├─Sequential: 1-2                        [1, 100]                  --
│    └─Dropout: 2-14                     [1, 1024]                 --
│    └─Linear: 2-15                      [1, 4096]                 4,198,400
│    └─ReLU: 2-16                        [1, 4096]                 --
│    └─Dropout: 2-17                     [1, 4096]                 --
│    └─Linear: 2-18                      [1, 4096]                 16,781,312
│    └─ReLU: 2-19                        [1, 4096]                 --
│    └─Linear: 2-20                      [1, 100]                  409,700
==========================================================================================
Total params: 23,640,996
Trainable params: 23,640,996
Non-trainable params: 0
Total mult-adds (M): 63.16
==========================================================================================
Input size (MB): 0.01
Forward/backward pass size (MB): 0.41
Params size (MB): 94.56
Estimated Total Size (MB): 94.99
…
		Top 5 Acc = 74.96%                                 
		Loss/Iteration: 0.7512835282832384

Epoch [130/130]:
		Specificity: 1.0
		Top 1 Acc = 47.32%
		Top 5 Acc = 75.16%                                 
		Loss/Iteration: 0.7446385752409697

------------------------------

||========================================||

Model: Branchy-AlexNet
==========================================================================================
Layer (type:depth-idx)                   Output Shape              Param #
==========================================================================================
BranchyAlexNet                           [1, 100]                  --
├─Sequential: 1-1                        [1, 64, 8, 8]             --
│    └─Conv2d: 2-1                       [1, 64, 16, 16]           1,792
│    └─MaxPool2d: 2-2                    [1, 64, 8, 8]             --
│    └─ReLU: 2-3                         [1, 64, 8, 8]             --
├─Sequential: 1-2                        [1, 128, 2, 2]            --
│    └─Conv2d: 2-4                       [1, 256, 8, 8]            147,712
│    └─MaxPool2d: 2-5                    [1, 256, 4, 4]            --
│    └─ReLU: 2-6                         [1, 256, 4, 4]            --
│    └─Conv2d: 2-7                       [1, 128, 4, 4]            295,040
│    └─MaxPool2d: 2-8                    [1, 128, 2, 2]            --
│    └─ReLU: 2-9                         [1, 128, 2, 2]            --
├─Sequential: 1-3                        [1, 100]                  --
│    └─Dropout: 2-10                     [1, 512]                  --
│    └─Linear: 2-11                      [1, 2048]                 1,050,624
│    └─ReLU: 2-12                        [1, 2048]                 --
│    └─Linear: 2-13                      [1, 100]                  204,900
├─Sequential: 1-4                        [1, 384, 4, 4]            --
│    └─Conv2d: 2-14                      [1, 192, 8, 8]            110,784
│    └─MaxPool2d: 2-15                   [1, 192, 4, 4]            --
│    └─ReLU: 2-16                        [1, 192, 4, 4]            --
│    └─Conv2d: 2-17                      [1, 384, 4, 4]            663,936
│    └─ReLU: 2-18                        [1, 384, 4, 4]            --
├─Sequential: 1-5                        [1, 256, 1, 1]            --
│    └─Conv2d: 2-19                      [1, 256, 2, 2]            884,992
│    └─MaxPool2d: 2-20                   [1, 256, 1, 1]            --
│    └─ReLU: 2-21                        [1, 256, 1, 1]            --
├─Sequential: 1-6                        [1, 100]                  --
│    └─Dropout: 2-22                     [1, 256]                  --
│    └─Linear: 2-23                      [1, 2048]                 526,336
│    └─ReLU: 2-24                        [1, 2048]                 --
│    └─Linear: 2-25                      [1, 100]                  204,900
├─Sequential: 1-7                        [1, 256, 2, 2]            --
│    └─Conv2d: 2-26                      [1, 256, 4, 4]            884,992
│    └─ReLU: 2-27                        [1, 256, 4, 4]            --
│    └─Conv2d: 2-28                      [1, 256, 4, 4]            590,080
│    └─MaxPool2d: 2-29                   [1, 256, 2, 2]            --
│    └─ReLU: 2-30                        [1, 256, 2, 2]            --
├─Sequential: 1-8                        [1, 100]                  --
│    └─Dropout: 2-31                     [1, 1024]                 --
│    └─Linear: 2-32                      [1, 2048]                 2,099,200
│    └─ReLU: 2-33                        [1, 2048]                 --
│    └─Dropout: 2-34                     [1, 2048]                 --
│    └─Linear: 2-35                      [1, 2048]                 4,196,352
│    └─ReLU: 2-36                        [1, 2048]                 --
│    └─Linear: 2-37                      [1, 100]                  204,900
==========================================================================================
Total params: 12,066,540
Trainable params: 12,066,540
Non-trainable params: 0
Total mult-adds (M): 67.97
==========================================================================================
Input size (MB): 0.01
Forward/backward pass size (MB): 0.57
Params size (MB): 48.27
Estimated Total Size (MB): 48.85
…
		Top 5 Acc = 78.72%                                 
		Loss/Iteration: 2.935905864292925

Epoch [130/130]:
		Specificity: 1.0
		Top 1 Acc = 50.36%
		Top 5 Acc = 77.88%                                 
		Loss/Iteration: 2.9242055656557735

------------------------------

||========================================||

Model: Sem-HBN
==========================================================================================
Layer (type:depth-idx)                   Output Shape              Param #
==========================================================================================
SemHBN                                   [1, 100]                  --
├─Sequential: 1-1                        [1, 64, 8, 8]             --
│    └─Conv2d: 2-1                       [1, 64, 16, 16]           1,792
│    └─MaxPool2d: 2-2                    [1, 64, 8, 8]             --
│    └─ReLU: 2-3                         [1, 64, 8, 8]             --
├─Sequential: 1-2                        [1, 128, 2, 2]            --
│    └─Conv2d: 2-4                       [1, 256, 8, 8]            147,712
│    └─MaxPool2d: 2-5                    [1, 256, 4, 4]            --
│    └─ReLU: 2-6                         [1, 256, 4, 4]            --
│    └─Conv2d: 2-7                       [1, 128, 4, 4]            295,040
│    └─MaxPool2d: 2-8                    [1, 128, 2, 2]            --
│    └─ReLU: 2-9                         [1, 128, 2, 2]            --
├─Sequential: 1-3                        [1, 20]                   --
│    └─Dropout: 2-10                     [1, 512]                  --
│    └─Linear: 2-11                      [1, 2048]                 1,050,624
│    └─ReLU: 2-12                        [1, 2048]                 --
│    └─Linear: 2-13                      [1, 20]                   40,980
├─Sequential: 1-4                        [1, 384, 4, 4]            --
│    └─Conv2d: 2-14                      [1, 192, 8, 8]            110,784
│    └─MaxPool2d: 2-15                   [1, 192, 4, 4]            --
│    └─ReLU: 2-16                        [1, 192, 4, 4]            --
│    └─Conv2d: 2-17                      [1, 384, 4, 4]            663,936
│    └─ReLU: 2-18                        [1, 384, 4, 4]            --
├─Sequential: 1-5                        [1, 256, 1, 1]            --
│    └─Conv2d: 2-19                      [1, 256, 2, 2]            884,992
│    └─MaxPool2d: 2-20                   [1, 256, 1, 1]            --
│    └─ReLU: 2-21                        [1, 256, 1, 1]            --
├─Sequential: 1-6                        [1, 20]                   --
│    └─Dropout: 2-22                     [1, 256]                  --
│    └─Linear: 2-23                      [1, 2048]                 526,336
│    └─ReLU: 2-24                        [1, 2048]                 --
│    └─Linear: 2-25                      [1, 20]                   40,980
├─Sequential: 1-7                        [1, 256, 2, 2]            --
│    └─Conv2d: 2-26                      [1, 256, 4, 4]            884,992
│    └─ReLU: 2-27                        [1, 256, 4, 4]            --
│    └─Conv2d: 2-28                      [1, 256, 4, 4]            590,080
│    └─MaxPool2d: 2-29                   [1, 256, 2, 2]            --
│    └─ReLU: 2-30                        [1, 256, 2, 2]            --
├─Sequential: 1-8                        [1, 100]                  --
│    └─Dropout: 2-31                     [1, 1024]                 --
│    └─Linear: 2-32                      [1, 2048]                 2,099,200
│    └─ReLU: 2-33                        [1, 2048]                 --
│    └─Dropout: 2-34                     [1, 2048]                 --
│    └─Linear: 2-35                      [1, 2048]                 4,196,352
│    └─ReLU: 2-36                        [1, 2048]                 --
│    └─Linear: 2-37                      [1, 100]                  204,900
==========================================================================================
Total params: 11,738,700
Trainable params: 11,738,700
Non-trainable params: 0
Total mult-adds (M): 67.65
==========================================================================================
Input size (MB): 0.01
Forward/backward pass size (MB): 0.57
Params size (MB): 46.95
Estimated Total Size (MB): 47.53
…
		Top 5 Acc = 76.62%                                 
		Loss/Iteration: 2.030231849544428

Epoch [130/130]:
		Specificity: 0.9873417721518988
		Top 1 Acc = 50.1%
		Top 5 Acc = 77.12%                                 
		Loss/Iteration: 2.0333560566333206

------------------------------

||========================================||

Model: Super-HBN
==========================================================================================
Layer (type:depth-idx)                   Output Shape              Param #
==========================================================================================
SuperHBN                                 [1, 20]                   --
├─Sequential: 1-1                        [1, 64, 8, 8]             --
│    └─Conv2d: 2-1                       [1, 64, 16, 16]           1,792
│    └─MaxPool2d: 2-2                    [1, 64, 8, 8]             --
│    └─ReLU: 2-3                         [1, 64, 8, 8]             --
├─Sequential: 1-2                        [1, 128, 2, 2]            --
│    └─Conv2d: 2-4                       [1, 256, 8, 8]            147,712
│    └─MaxPool2d: 2-5                    [1, 256, 4, 4]            --
│    └─ReLU: 2-6                         [1, 256, 4, 4]            --
│    └─Conv2d: 2-7                       [1, 128, 4, 4]            295,040
│    └─MaxPool2d: 2-8                    [1, 128, 2, 2]            --
│    └─ReLU: 2-9                         [1, 128, 2, 2]            --
├─Sequential: 1-3                        [1, 2048]                 --
│    └─Dropout: 2-10                     [1, 512]                  --
│    └─Linear: 2-11                      [1, 2048]                 1,050,624
│    └─ReLU: 2-12                        [1, 2048]                 --
├─Sequential: 1-4                        [1, 100]                  --
│    └─Linear: 2-13                      [1, 100]                  204,900
├─Sequential: 1-5                        [1, 20]                   --
│    └─Linear: 2-14                      [1, 20]                   40,980
├─Sequential: 1-6                        [1, 384, 4, 4]            --
│    └─Conv2d: 2-15                      [1, 192, 8, 8]            110,784
│    └─MaxPool2d: 2-16                   [1, 192, 4, 4]            --
│    └─ReLU: 2-17                        [1, 192, 4, 4]            --
│    └─Conv2d: 2-18                      [1, 384, 4, 4]            663,936
│    └─ReLU: 2-19                        [1, 384, 4, 4]            --
├─Sequential: 1-7                        [1, 256, 1, 1]            --
│    └─Conv2d: 2-20                      [1, 256, 2, 2]            884,992
│    └─MaxPool2d: 2-21                   [1, 256, 1, 1]            --
│    └─ReLU: 2-22                        [1, 256, 1, 1]            --
├─Sequential: 1-8                        [1, 2048]                 --
│    └─Dropout: 2-23                     [1, 256]                  --
│    └─Linear: 2-24                      [1, 2048]                 526,336
│    └─ReLU: 2-25                        [1, 2048]                 --
├─Sequential: 1-9                        [1, 100]                  --
│    └─Linear: 2-26                      [1, 100]                  204,900
├─Sequential: 1-10                       [1, 20]                   --
│    └─Linear: 2-27                      [1, 20]                   40,980
├─Sequential: 1-11                       [1, 256, 2, 2]            --
│    └─Conv2d: 2-28                      [1, 256, 4, 4]            884,992
│    └─ReLU: 2-29                        [1, 256, 4, 4]            --
│    └─Conv2d: 2-30                      [1, 256, 4, 4]            590,080
│    └─MaxPool2d: 2-31                   [1, 256, 2, 2]            --
│    └─ReLU: 2-32                        [1, 256, 2, 2]            --
├─Sequential: 1-12                       [1, 2048]                 --
│    └─Dropout: 2-33                     [1, 1024]                 --
│    └─Linear: 2-34                      [1, 2048]                 2,099,200
│    └─ReLU: 2-35                        [1, 2048]                 --
│    └─Dropout: 2-36                     [1, 2048]                 --
│    └─Linear: 2-37                      [1, 2048]                 4,196,352
│    └─ReLU: 2-38                        [1, 2048]                 --
├─Sequential: 1-13                       [1, 100]                  --
│    └─Linear: 2-39                      [1, 100]                  204,900
├─Sequential: 1-14                       [1, 20]                   --
│    └─Linear: 2-40                      [1, 20]                   40,980
==========================================================================================
Total params: 12,189,480
Trainable params: 12,189,480
Non-trainable params: 0
Total mult-adds (M): 68.10
==========================================================================================
Input size (MB): 0.01
Forward/backward pass size (MB): 0.57
Params size (MB): 48.76
Estimated Total Size (MB): 49.34
…
		Top 5 Acc = 78.76%                                 
		Loss/Iteration: 5.545397566462105

Epoch [130/130]:
		Specificity: 0.7468354430379747
		Top 1 Acc = 53.62%
		Top 5 Acc = 81.44%                                 
		Loss/Iteration: 5.5247035964646125

------------------------------

||========================================||

Model: TD-HBN
==========================================================================================
Layer (type:depth-idx)                   Output Shape              Param #
==========================================================================================
TD_HBN                                   [1, 100]                  --
├─Sequential: 1-1                        [1, 64, 8, 8]             --
│    └─Conv2d: 2-1                       [1, 64, 16, 16]           1,792
│    └─MaxPool2d: 2-2                    [1, 64, 8, 8]             --
│    └─ReLU: 2-3                         [1, 64, 8, 8]             --
├─Sequential: 1-2                        [1, 128, 2, 2]            --
│    └─Conv2d: 2-4                       [1, 256, 8, 8]            147,712
│    └─MaxPool2d: 2-5                    [1, 256, 4, 4]            --
│    └─ReLU: 2-6                         [1, 256, 4, 4]            --
│    └─Conv2d: 2-7                       [1, 128, 4, 4]            295,040
│    └─MaxPool2d: 2-8                    [1, 128, 2, 2]            --
│    └─ReLU: 2-9                         [1, 128, 2, 2]            --
├─Sequential: 1-3                        [1, 2048]                 --
│    └─Dropout: 2-10                     [1, 512]                  --
│    └─Linear: 2-11                      [1, 2048]                 1,050,624
│    └─ReLU: 2-12                        [1, 2048]                 --
├─Sequential: 1-4                        [1, 100]                  --
│    └─Linear: 2-13                      [1, 100]                  204,900
├─Sequential: 1-5                        [1, 20]                   --
│    └─Linear: 2-14                      [1, 20]                   40,980
├─Sequential: 1-6                        [1, 2]                    --
│    └─Linear: 2-15                      [1, 2]                    4,098
├─Sequential: 1-7                        [1, 384, 4, 4]            --
│    └─Conv2d: 2-16                      [1, 192, 8, 8]            110,784
│    └─MaxPool2d: 2-17                   [1, 192, 4, 4]            --
│    └─ReLU: 2-18                        [1, 192, 4, 4]            --
│    └─Conv2d: 2-19                      [1, 384, 4, 4]            663,936
│    └─ReLU: 2-20                        [1, 384, 4, 4]            --
├─Sequential: 1-8                        [1, 256, 1, 1]            --
│    └─Conv2d: 2-21                      [1, 256, 2, 2]            884,992
│    └─MaxPool2d: 2-22                   [1, 256, 1, 1]            --
│    └─ReLU: 2-23                        [1, 256, 1, 1]            --
├─Sequential: 1-9                        [1, 2048]                 --
│    └─Dropout: 2-24                     [1, 256]                  --
│    └─Linear: 2-25                      [1, 2048]                 526,336
│    └─ReLU: 2-26                        [1, 2048]                 --
├─Sequential: 1-10                       [1, 100]                  --
│    └─Linear: 2-27                      [1, 100]                  204,900
├─Sequential: 1-11                       [1, 20]                   --
│    └─Linear: 2-28                      [1, 20]                   40,980
├─Sequential: 1-12                       [1, 256, 2, 2]            --
│    └─Conv2d: 2-29                      [1, 256, 4, 4]            884,992
│    └─ReLU: 2-30                        [1, 256, 4, 4]            --
│    └─Conv2d: 2-31                      [1, 256, 4, 4]            590,080
│    └─MaxPool2d: 2-32                   [1, 256, 2, 2]            --
│    └─ReLU: 2-33                        [1, 256, 2, 2]            --
├─Sequential: 1-13                       [1, 2048]                 --
│    └─Dropout: 2-34                     [1, 1024]                 --
│    └─Linear: 2-35                      [1, 2048]                 2,099,200
│    └─ReLU: 2-36                        [1, 2048]                 --
│    └─Dropout: 2-37                     [1, 2048]                 --
│    └─Linear: 2-38                      [1, 2048]                 4,196,352
│    └─ReLU: 2-39                        [1, 2048]                 --
├─Sequential: 1-14                       [1, 100]                  --
│    └─Linear: 2-40                      [1, 100]                  204,900
├─Sequential: 1-15                       [1, 20]                   --
│    └─Linear: 2-41                      [1, 20]                   40,980
==========================================================================================
Total params: 12,193,578
Trainable params: 12,193,578
Non-trainable params: 0
Total mult-adds (M): 68.10
==========================================================================================
Input size (MB): 0.01
Forward/backward pass size (MB): 0.57
Params size (MB): 48.77
Estimated Total Size (MB): 49.35
…
