==========================================================================================
Layer (type:depth-idx)                   Output Shape              Param #
==========================================================================================
AlexNet                                  [256, 100]                --
├─Sequential: 1-1                        [256, 256, 6, 6]          --
│    └─Conv2d: 2-1                       [256, 64, 15, 15]         4,864
│    └─ReLU: 2-2                         [256, 64, 15, 15]         --
│    └─MaxPool2d: 2-3                    [256, 64, 7, 7]           --
│    └─Conv2d: 2-4                       [256, 192, 7, 7]          307,392
│    └─ReLU: 2-5                         [256, 192, 7, 7]          --
│    └─MaxPool2d: 2-6                    [256, 192, 3, 3]          --
│    └─Conv2d: 2-7                       [256, 384, 3, 3]          663,936
│    └─ReLU: 2-8                         [256, 384, 3, 3]          --
│    └─Conv2d: 2-9                       [256, 256, 3, 3]          884,992
│    └─ReLU: 2-10                        [256, 256, 3, 3]          --
│    └─Conv2d: 2-11                      [256, 256, 3, 3]          590,080
│    └─ReLU: 2-12                        [256, 256, 3, 3]          --
│    └─MaxPool2d: 2-13                   [256, 256, 1, 1]          --
│    └─AdaptiveAvgPool2d: 2-14           [256, 256, 6, 6]          --
├─Sequential: 1-2                        [256, 100]                --
│    └─Dropout: 2-15                     [256, 9216]               --
│    └─Linear: 2-16                      [256, 4096]               37,752,832
│    └─ReLU: 2-17                        [256, 4096]               --
│    └─Dropout: 2-18                     [256, 4096]               --
│    └─Linear: 2-19                      [256, 4096]               16,781,312
│    └─ReLU: 2-20                        [256, 4096]               --
│    └─Linear: 2-21                      [256, 100]                409,700
==========================================================================================
Total params: 57,395,108
Trainable params: 57,395,108
Non-trainable params: 0
Total mult-adds (G): 23.13
==========================================================================================
Input size (MB): 3.15
Forward/backward pass size (MB): 82.26
Params size (MB): 229.58
Estimated Total Size (MB): 314.98
…
