Args:
	mode: training
	batch_size: 64
	lr: 0.00015
	pt_lr: 1e-05
	weight_decay: 0.0005
	device: cuda
	num_epochs: 120


Model: AlexNet
==========================================================================================
Layer (type:depth-idx)                   Output Shape              Param #
==========================================================================================
AlexNet                                  [1, 100]                  --
├─Sequential: 1-1                        [1, 256, 2, 2]            --
│    └─Conv2d: 2-1                       [1, 64, 16, 16]           1,792
│    └─MaxPool2d: 2-2                    [1, 64, 8, 8]             --
│    └─ReLU: 2-3                         [1, 64, 8, 8]             --
│    └─Conv2d: 2-4                       [1, 192, 8, 8]            110,784
│    └─MaxPool2d: 2-5                    [1, 192, 4, 4]            --
│    └─ReLU: 2-6                         [1, 192, 4, 4]            --
│    └─Conv2d: 2-7                       [1, 384, 4, 4]            663,936
│    └─ReLU: 2-8                         [1, 384, 4, 4]            --
│    └─Conv2d: 2-9                       [1, 256, 4, 4]            884,992
│    └─ReLU: 2-10                        [1, 256, 4, 4]            --
│    └─Conv2d: 2-11                      [1, 256, 4, 4]            590,080
│    └─MaxPool2d: 2-12                   [1, 256, 2, 2]            --
│    └─ReLU: 2-13                        [1, 256, 2, 2]            --
├─Sequential: 1-2                        [1, 100]                  --
│    └─Dropout: 2-14                     [1, 1024]                 --
│    └─Linear: 2-15                      [1, 2048]                 2,099,200
│    └─ReLU: 2-16                        [1, 2048]                 --
│    └─Dropout: 2-17                     [1, 2048]                 --
│    └─Linear: 2-18                      [1, 2048]                 4,196,352
│    └─ReLU: 2-19                        [1, 2048]                 --
│    └─Linear: 2-20                      [1, 100]                  204,900
==========================================================================================
Total params: 8,752,036
Trainable params: 8,752,036
Non-trainable params: 0
Total mult-adds (M): 48.27
==========================================================================================
Input size (MB): 0.01
Forward/backward pass size (MB): 0.38
Params size (MB): 35.01
Estimated Total Size (MB): 35.40
…
