Args:
	mode: training
	batch_size: 256
	lr: 0.0005
	weight_decay: 0.0001
	device: cuda
	num_epochs: 2


Model == AlexNet

==========================================================================================
Layer (type:depth-idx)                   Output Shape              Param #
==========================================================================================
AlexNet                                  [256, 100]                --
├─Sequential: 1-1                        [256, 256, 6, 6]          --
│    └─Conv2d: 2-1                       [256, 64, 15, 15]         4,864
│    └─ReLU: 2-2                         [256, 64, 15, 15]         --
│    └─MaxPool2d: 2-3                    [256, 64, 7, 7]           --
│    └─Conv2d: 2-4                       [256, 192, 7, 7]          307,392
│    └─ReLU: 2-5                         [256, 192, 7, 7]          --
│    └─MaxPool2d: 2-6                    [256, 192, 3, 3]          --
│    └─Conv2d: 2-7                       [256, 384, 3, 3]          663,936
│    └─ReLU: 2-8                         [256, 384, 3, 3]          --
│    └─Conv2d: 2-9                       [256, 256, 3, 3]          884,992
│    └─ReLU: 2-10                        [256, 256, 3, 3]          --
│    └─Conv2d: 2-11                      [256, 256, 3, 3]          590,080
│    └─ReLU: 2-12                        [256, 256, 3, 3]          --
│    └─MaxPool2d: 2-13                   [256, 256, 1, 1]          --
│    └─AdaptiveAvgPool2d: 2-14           [256, 256, 6, 6]          --
├─Sequential: 1-2                        [256, 100]                --
│    └─Dropout: 2-15                     [256, 9216]               --
│    └─Linear: 2-16                      [256, 4096]               37,752,832
│    └─ReLU: 2-17                        [256, 4096]               --
│    └─Dropout: 2-18                     [256, 4096]               --
│    └─Linear: 2-19                      [256, 4096]               16,781,312
│    └─ReLU: 2-20                        [256, 4096]               --
│    └─Linear: 2-21                      [256, 100]                409,700
==========================================================================================
Total params: 57,395,108
Trainable params: 57,395,108
Non-trainable params: 0
Total mult-adds (G): 23.13
==========================================================================================
Input size (MB): 3.15
Forward/backward pass size (MB): 82.26
Params size (MB): 229.58
Estimated Total Size (MB): 314.98
…
None
None
None
None
None
None
None
None
None
None
None
None
None
None
None
None
None
None
None
None
None
None
None
Epoch [2/2]:                             
		Top 1 Acc = 7.28%
		Top 5 Acc = 25.2%

------------------------------

||========================================||

Model == Branchy-AlexNet

==========================================================================================
Layer (type:depth-idx)                   Output Shape              Param #
==========================================================================================
BranchyAlexNet                           [256, 100]                --
├─Sequential: 1-1                        [256, 64, 7, 7]           --
│    └─Conv2d: 2-1                       [256, 64, 15, 15]         4,864
│    └─ReLU: 2-2                         [256, 64, 15, 15]         --
│    └─MaxPool2d: 2-3                    [256, 64, 7, 7]           --
├─Sequential: 1-2                        [256, 128, 1, 1]          --
│    └─Conv2d: 2-4                       [256, 256, 7, 7]          147,712
│    └─MaxPool2d: 2-5                    [256, 256, 3, 3]          --
│    └─ReLU: 2-6                         [256, 256, 3, 3]          --
│    └─Conv2d: 2-7                       [256, 128, 3, 3]          295,040
│    └─MaxPool2d: 2-8                    [256, 128, 1, 1]          --
│    └─ReLU: 2-9                         [256, 128, 1, 1]          --
├─AdaptiveAvgPool2d: 1-3                 [256, 128, 6, 6]          --
├─Sequential: 1-4                        [256, 100]                --
│    └─Dropout: 2-10                     [256, 4608]               --
│    └─Linear: 2-11                      [256, 2048]               9,439,232
│    └─ReLU: 2-12                        [256, 2048]               --
│    └─Dropout: 2-13                     [256, 2048]               --
│    └─Linear: 2-14                      [256, 2048]               4,196,352
│    └─ReLU: 2-15                        [256, 2048]               --
│    └─Linear: 2-16                      [256, 100]                204,900
├─Sequential: 1-5                        [256, 384, 3, 3]          --
│    └─Conv2d: 2-17                      [256, 192, 7, 7]          307,392
│    └─ReLU: 2-18                        [256, 192, 7, 7]          --
│    └─MaxPool2d: 2-19                   [256, 192, 3, 3]          --
│    └─Conv2d: 2-20                      [256, 384, 3, 3]          663,936
│    └─ReLU: 2-21                        [256, 384, 3, 3]          --
├─Sequential: 1-6                        [256, 256, 1, 1]          --
│    └─Conv2d: 2-22                      [256, 256, 2, 2]          884,992
│    └─MaxPool2d: 2-23                   [256, 256, 1, 1]          --
│    └─ReLU: 2-24                        [256, 256, 1, 1]          --
├─AdaptiveAvgPool2d: 1-7                 [256, 256, 6, 6]          --
├─Sequential: 1-8                        [256, 100]                --
│    └─Dropout: 2-25                     [256, 9216]               --
│    └─Linear: 2-26                      [256, 100]                921,700
├─Sequential: 1-9                        [256, 256, 1, 1]          --
│    └─Conv2d: 2-27                      [256, 256, 3, 3]          884,992
│    └─ReLU: 2-28                        [256, 256, 3, 3]          --
│    └─Conv2d: 2-29                      [256, 256, 3, 3]          590,080
│    └─ReLU: 2-30                        [256, 256, 3, 3]          --
│    └─MaxPool2d: 2-31                   [256, 256, 1, 1]          --
├─AdaptiveAvgPool2d: 1-10                [256, 256, 6, 6]          --
├─Sequential: 1-11                       [256, 100]                --
│    └─Dropout: 2-32                     [256, 9216]               --
│    └─Linear: 2-33                      [256, 4096]               37,752,832
│    └─ReLU: 2-34                        [256, 4096]               --
│    └─Dropout: 2-35                     [256, 4096]               --
│    └─Linear: 2-36                      [256, 4096]               16,781,312
│    └─ReLU: 2-37                        [256, 4096]               --
│    └─Linear: 2-38                      [256, 100]                409,700
==========================================================================================
Total params: 73,485,036
Trainable params: 73,485,036
Non-trainable params: 0
Total mult-adds (G): 30.35
==========================================================================================
Input size (MB): 3.15
Forward/backward pass size (MB): 121.20
Params size (MB): 293.94
Estimated Total Size (MB): 418.29
…
exit 3
exit 3
exit 3
exit 3
exit 3
exit 3
exit 3
exit 3
exit 3
exit 3
exit 3
exit 3
exit 3
exit 3
exit 3
exit 3
exit 3
Epoch [2/2]:                             
		Top 1 Acc = 12.04%
		Top 5 Acc = 37.48%

------------------------------

||========================================||

Model == Super-HBN

==========================================================================================
Layer (type:depth-idx)                   Output Shape              Param #
==========================================================================================
SuperHBN                                 [256, 20]                 --
├─Sequential: 1-1                        [256, 64, 7, 7]           --
│    └─Conv2d: 2-1                       [256, 64, 15, 15]         4,864
│    └─ReLU: 2-2                         [256, 64, 15, 15]         --
│    └─MaxPool2d: 2-3                    [256, 64, 7, 7]           --
├─Sequential: 1-2                        [256, 128, 1, 1]          --
│    └─Conv2d: 2-4                       [256, 256, 7, 7]          147,712
│    └─MaxPool2d: 2-5                    [256, 256, 3, 3]          --
│    └─ReLU: 2-6                         [256, 256, 3, 3]          --
│    └─Conv2d: 2-7                       [256, 128, 3, 3]          295,040
│    └─MaxPool2d: 2-8                    [256, 128, 1, 1]          --
│    └─ReLU: 2-9                         [256, 128, 1, 1]          --
├─AdaptiveAvgPool2d: 1-3                 [256, 128, 6, 6]          --
├─Sequential: 1-4                        [256, 2048]               --
│    └─Dropout: 2-10                     [256, 4608]               --
│    └─Linear: 2-11                      [256, 2048]               9,439,232
│    └─ReLU: 2-12                        [256, 2048]               --
│    └─Dropout: 2-13                     [256, 2048]               --
│    └─Linear: 2-14                      [256, 2048]               4,196,352
│    └─ReLU: 2-15                        [256, 2048]               --
├─Sequential: 1-5                        [256, 100]                --
│    └─Linear: 2-16                      [256, 100]                204,900
├─Sequential: 1-6                        [256, 20]                 --
│    └─Linear: 2-17                      [256, 20]                 40,980
├─Sequential: 1-7                        [256, 384, 3, 3]          --
│    └─Conv2d: 2-18                      [256, 192, 7, 7]          307,392
│    └─ReLU: 2-19                        [256, 192, 7, 7]          --
│    └─MaxPool2d: 2-20                   [256, 192, 3, 3]          --
│    └─Conv2d: 2-21                      [256, 384, 3, 3]          663,936
│    └─ReLU: 2-22                        [256, 384, 3, 3]          --
├─Sequential: 1-8                        [256, 256, 1, 1]          --
│    └─Conv2d: 2-23                      [256, 256, 2, 2]          884,992
│    └─MaxPool2d: 2-24                   [256, 256, 1, 1]          --
│    └─ReLU: 2-25                        [256, 256, 1, 1]          --
├─AdaptiveAvgPool2d: 1-9                 [256, 256, 6, 6]          --
├─Sequential: 1-10                       [256, 2048]               --
│    └─Dropout: 2-26                     [256, 9216]               --
│    └─Linear: 2-27                      [256, 2048]               18,876,416
│    └─ReLU: 2-28                        [256, 2048]               --
│    └─Dropout: 2-29                     [256, 2048]               --
│    └─Linear: 2-30                      [256, 2048]               4,196,352
│    └─ReLU: 2-31                        [256, 2048]               --
├─Sequential: 1-11                       [256, 100]                --
│    └─Dropout: 2-32                     [256, 2048]               --
│    └─Linear: 2-33                      [256, 100]                204,900
├─Sequential: 1-12                       [256, 20]                 --
│    └─Dropout: 2-34                     [256, 2048]               --
│    └─Linear: 2-35                      [256, 20]                 40,980
├─Sequential: 1-13                       [256, 256, 1, 1]          --
│    └─Conv2d: 2-36                      [256, 256, 3, 3]          884,992
│    └─ReLU: 2-37                        [256, 256, 3, 3]          --
│    └─Conv2d: 2-38                      [256, 256, 3, 3]          590,080
│    └─ReLU: 2-39                        [256, 256, 3, 3]          --
│    └─MaxPool2d: 2-40                   [256, 256, 1, 1]          --
├─AdaptiveAvgPool2d: 1-14                [256, 256, 6, 6]          --
├─Sequential: 1-15                       [256, 2048]               --
│    └─Dropout: 2-41                     [256, 9216]               --
│    └─Linear: 2-42                      [256, 2048]               18,876,416
│    └─ReLU: 2-43                        [256, 2048]               --
│    └─Dropout: 2-44                     [256, 2048]               --
│    └─Linear: 2-45                      [256, 2048]               4,196,352
│    └─ReLU: 2-46                        [256, 2048]               --
├─Sequential: 1-16                       [256, 100]                --
│    └─Linear: 2-47                      [256, 100]                204,900
├─Sequential: 1-17                       [256, 20]                 --
│    └─Linear: 2-48                      [256, 20]                 40,980
==========================================================================================
Total params: 64,297,768
Trainable params: 64,297,768
Non-trainable params: 0
Total mult-adds (G): 28.00
==========================================================================================
Input size (MB): 3.15
Forward/backward pass size (MB): 121.32
Params size (MB): 257.19
Estimated Total Size (MB): 381.66
…
