Args:
	mode: training
	batch_size: 256
	lr: 0.0005
	weight_decay: 0.0001
	device: cuda
	num_epochs: 5


Model == TD-HBN

==========================================================================================
Layer (type:depth-idx)                   Output Shape              Param #
==========================================================================================
TD_HBN                                   [256, 100]                --
├─Sequential: 1-1                        [256, 64, 7, 7]           --
│    └─Conv2d: 2-1                       [256, 64, 15, 15]         4,864
│    └─ReLU: 2-2                         [256, 64, 15, 15]         --
│    └─MaxPool2d: 2-3                    [256, 64, 7, 7]           --
├─Sequential: 1-2                        [256, 128, 1, 1]          --
│    └─Conv2d: 2-4                       [256, 256, 7, 7]          147,712
│    └─MaxPool2d: 2-5                    [256, 256, 3, 3]          --
│    └─ReLU: 2-6                         [256, 256, 3, 3]          --
│    └─Conv2d: 2-7                       [256, 128, 3, 3]          295,040
│    └─MaxPool2d: 2-8                    [256, 128, 1, 1]          --
│    └─ReLU: 2-9                         [256, 128, 1, 1]          --
├─AdaptiveAvgPool2d: 1-3                 [256, 128, 6, 6]          --
├─Sequential: 1-4                        [256, 2048]               --
│    └─Dropout: 2-10                     [256, 4608]               --
│    └─Linear: 2-11                      [256, 2048]               9,439,232
│    └─ReLU: 2-12                        [256, 2048]               --
│    └─Dropout: 2-13                     [256, 2048]               --
│    └─Linear: 2-14                      [256, 2048]               4,196,352
│    └─ReLU: 2-15                        [256, 2048]               --
├─Sequential: 1-5                        [256, 100]                --
│    └─Linear: 2-16                      [256, 100]                204,900
├─Sequential: 1-6                        [256, 20]                 --
│    └─Linear: 2-17                      [256, 20]                 40,980
├─AdaptiveAvgPool2d: 1-7                 [256, 64, 6, 6]           --
├─Sequential: 1-8                        [256, 2]                  --
│    └─Dropout: 2-18                     [256, 2304]               --
│    └─Linear: 2-19                      [256, 128]                295,040
│    └─ReLU: 2-20                        [256, 128]                --
│    └─Dropout: 2-21                     [256, 128]                --
│    └─LayerNorm: 2-22                   [256, 128]                256
│    └─Linear: 2-23                      [256, 2]                  258
├─Sequential: 1-9                        [256, 384, 3, 3]          --
│    └─Conv2d: 2-24                      [256, 192, 7, 7]          307,392
│    └─ReLU: 2-25                        [256, 192, 7, 7]          --
│    └─MaxPool2d: 2-26                   [256, 192, 3, 3]          --
│    └─Conv2d: 2-27                      [256, 384, 3, 3]          663,936
│    └─ReLU: 2-28                        [256, 384, 3, 3]          --
├─Sequential: 1-10                       [256, 256, 1, 1]          --
│    └─Conv2d: 2-29                      [256, 256, 2, 2]          884,992
│    └─MaxPool2d: 2-30                   [256, 256, 1, 1]          --
│    └─ReLU: 2-31                        [256, 256, 1, 1]          --
├─AdaptiveAvgPool2d: 1-11                [256, 256, 6, 6]          --
├─Sequential: 1-12                       [256, 2048]               --
│    └─Dropout: 2-32                     [256, 9216]               --
│    └─Linear: 2-33                      [256, 2048]               18,876,416
│    └─ReLU: 2-34                        [256, 2048]               --
│    └─Dropout: 2-35                     [256, 2048]               --
│    └─Linear: 2-36                      [256, 2048]               4,196,352
│    └─ReLU: 2-37                        [256, 2048]               --
├─Sequential: 1-13                       [256, 100]                --
│    └─Dropout: 2-38                     [256, 2048]               --
│    └─Linear: 2-39                      [256, 100]                204,900
├─Sequential: 1-14                       [256, 20]                 --
│    └─Dropout: 2-40                     [256, 2048]               --
│    └─Linear: 2-41                      [256, 20]                 40,980
├─Sequential: 1-15                       [256, 256, 1, 1]          --
│    └─Conv2d: 2-42                      [256, 256, 3, 3]          884,992
│    └─ReLU: 2-43                        [256, 256, 3, 3]          --
│    └─Conv2d: 2-44                      [256, 256, 3, 3]          590,080
│    └─ReLU: 2-45                        [256, 256, 3, 3]          --
│    └─MaxPool2d: 2-46                   [256, 256, 1, 1]          --
├─AdaptiveAvgPool2d: 1-16                [256, 256, 6, 6]          --
├─Sequential: 1-17                       [256, 2048]               --
│    └─Dropout: 2-47                     [256, 9216]               --
│    └─Linear: 2-48                      [256, 2048]               18,876,416
│    └─ReLU: 2-49                        [256, 2048]               --
│    └─Dropout: 2-50                     [256, 2048]               --
│    └─Linear: 2-51                      [256, 2048]               4,196,352
│    └─ReLU: 2-52                        [256, 2048]               --
├─Sequential: 1-18                       [256, 100]                --
│    └─Linear: 2-53                      [256, 100]                204,900
├─Sequential: 1-19                       [256, 20]                 --
│    └─Linear: 2-54                      [256, 20]                 40,980
==========================================================================================
Total params: 64,593,322
Trainable params: 64,593,322
Non-trainable params: 0
Total mult-adds (G): 28.07
==========================================================================================
Input size (MB): 3.15
Forward/backward pass size (MB): 121.85
Params size (MB): 258.37
Estimated Total Size (MB): 383.37
…
